learning_pytorch_shizhan/trained_save/NET_200_colab.pth (torch_old, 588273 bytes, 22 tensors)

sequential.0.weight f4 [32, 3, 5, 5]
-0.09466994 0.02056044 -0.0063420064 -0.022892682 0.04002095 0.016395498 0.027769761 -0.101283714
-0.01398279 0.031008631 -0.106180675 0.031073233 -0.104569145 0.012650837 0.06270759 0.05325156
-0.008971011 0.087317415 0.021723153 0.10755966 0.082043104 0.009124005 0.06739602 -0.06419814
0.008100792 -0.12716833 0.071388096 0.06329474 0.049860165 -0.08560109 -0.020301104 0.03965297
-0.06035717 -0.10762388 0.085300736 -0.076021954 0.05437953 0.066148154 0.09772717 -0.04478132
-0.122594394 0.07554957 0.083398245 0.025452934 -0.10185565 -0.021533895 -0.04160388 0.015250635
0.09008007 0.021406017 -0.12078644 -0.020349462 0.102618515 -0.07545544 0.056300897 -0.052631006
0.07761983 0.0894218 0.043825198 0.060614746 0.007421836 0.0006710236 0.09611185 0.044401158
-0.12425616 0.015019771 -0.021140018 0.12426771 -0.06142005 -0.049491372 -0.0076007824 -0.04009196
0.099854335 -0.13439335 0.063585825 0.020269576 0.06876429 0.016919654 -0.09213108 -0.07351285
-0.1271646 0.017119508 0.057744663 -0.03638071 0.049581416 -0.11309116 -0.14657077 -0.17469239
0.012315319 -0.09344613 0.016130397 -0.11083699 -0.1502569 -0.01999343 -0.09191794 0.04903107
0.18919002 0.23999412 0.18432531 0.21719702 -0.07637451 -0.080458134 -0.025504174 -0.07319283
-0.004399796 -0.00561655 0.12259991 0.09550925 0.030753896 0.020806873 -0.030416712 0.045277953
-0.063823745 -0.028343087 0.00048018625 -0.066626295 -0.009306697 0.056126133 -0.06239579 0.045087926
0.10373325 0.1563824 -0.043437753 0.06272149 -0.0943027 0.027256675 -0.084164694 -0.115348786
-0.0217518 0.09684804 0.06269184 -0.025442159 0.1333472 0.09954191 -0.029852267 0.028817002
0.10992696 0.06187899 0.1322366 -0.08294781 -0.13276379 0.03550308 -0.13491495 -0.13712762
-0.033907738 -0.066268444 -0.09627981 0.121816695 0.06855684 -0.02792159 -0.028880632 0.0514532
0.07838714 -0.087789 -0.13728975 0.04426802 0.06972398 0.087205045 0.015004694 -0.005685262
-0.06640706 -0.08242758 0.07930859 0.15551363 -0.057836734 0.09156606 -0.11211809 0.04298248
0.09768724 0.024017664 -0.15443134 0.01989485 -0.015204559 -0.13513157 0.04359949 0.13535486
0.091584876 0.06392248 0.002845972 0.05870608 0.013768543 0.1392978 0.14902501 -0.105628856
0.020487841 0.03751042 -0.08305122 -0.108816855 0.0011728654 0.015911886 0.08568056 0.015596647
-0.02255573 -0.08805402 -0.025905201 -0.11440055 -0.0035213646 -0.103945866 0.08417485 0.0357813
-0.072339736 -0.1361069 -0.07028186 -0.00065475865 -0.029770643 -0.060246 -0.08948432 -0.06722222
0.010306677 0.10069605 -0.07091795 -0.108995974 -0.13646492 0.049958788 -0.07654311 0.18976638
0.12055262 -0.0068151387 -0.05678229 0.013985017 -0.020181177 0.17531171 0.10400034 -0.05753474
-0.0041983956 -0.022662213 -0.099994496 0.02411399 0.047776848 0.015649283 0.09169678 0.02902909
-0.0041644503 -0.112717085 0.104407236 -0.116330676 -0.039904267 -0.08216474 -0.018235948 0.09201334
0.06293695 -0.11488636 0.12415436 -0.09234189 0.050879207 -0.058696024 0.012114408 -0.123373404
-0.12535438 0.09908911 0.04320906 -0.05509297 0.10612892 -0.14129417 -0.052135102 0.020988943
00000000: 50e2 c1bd 5e6e a83c 9bd0 cfbb 6f89 bbbc
00000010: 02ed 233d da4f 863c 697d e33c d66d cfbd
00000020: 1218 65bc d005 fe3c 4175 d9bd 4b8d fe3c
00000030: 5928 d6bd 7545 4f3c d66c 803d 4f1e 5a3d
00000040: 26fb 12bc 79d3 b23d c1f4 b13c 3d48 dc3d
00000050: 3706 a83d da7c 153c ed06 8a3d 507a 83bd
00000060: 2fb9 043c 6a38 02be ec33 923d aca0 813d
00000070: 2c3a 4c3d a04f afbd 804e a6bc 276b 223d
00000080: 1439 77bd e969 dcbd 27b2 ae3d 66b1 9bbd
00000090: 12bd 5e3d af78 873d 2f25 c83d 9e6c 37bd
000000a0: c512 fbbd bcb9 9a3d b3cc aa3d ac82 d03c
000000b0: b299 d0bd da67 b0bc d468 2abd cddd 793c
000000c0: e67b b83d ac5b af3c e25e f7bd eab3 a6bc
000000d0: a829 d23d 6288 9abd c59b 663d 9c93 57bd
000000e0: 25f7 9e3d c722 b73d 0d82 333d 2b47 783d
000000f0: df32 f33b a2e7 2f3a 4ad6 c43d fddd 353d
00000100: 037a febd 7c15 763c d52d adbc 1280 fe3d
00000110: 9793 7bbd 77b7 4abd fc0f f9bb 7837 24bd
00000120: 6e80 cc3d 699e 09be 4939 823d 620c a63c
00000130: 4bd4 8c3d 169b 8a3c 38af bcbd e88d 96bd
00000140: 7037 02be 363e 8c3c ab85 6c3d f003 15bd
00000150: e215 4b3d 579c e7bd a616 16be 90e2 32be
00000160: 31c6 493c af60 bfbd e523 843c 81fe e2bd
00000170: f2dc 19be 43c9 a3bc 793f bcbd ced4 483d
00000180: 07bb 413e 05c1 753e c6bf 3c3e e568 5e3e
00000190: 3d6a 9cbd 3cc7 a4bd 21ee d0bc 1fe6 95bd
000001a0: 2a2c 90bb 090b b8bb a915 fb3d 5b9a c33d
000001b0: 98ef fb3c 2d73 aa3c 782c f9bc 6075 393d
000001c0: 06b6 82bd c32f e8bc 82c1 fb39 5e73 88bd
000001d0: 1e7b 18bc 84e4 653d ba92 7fbd 1eae 383d
000001e0: 1972 d43d b522 203e c9eb 31bd 2074 803d
000001f0: c621 c1bd 6449 df3c 8a5e acbd fc3b ecbd
00000200: d530 b2bc 4458 c63d 9464 803d 136c d0bc
00000210: 2b8c 083e a1dc cb3d be8c f4bc a211 ec3c
00000220: 6321 e13d d374 7d3d 0869 073e 8be0 a9bd
00000230: 3bf3 07be ad6b 113d 2527 0abe 2f6b 0cbe
00000240: d7e2 0abd c0b7 87bd 592e c5bd 087b f93d
00000250: 8767 8c3d d1bb e4bc 1397 ecbc 97c0 523d
00000260: 7089 a03d b8ca b3bd af95 0cbe 6252 353d
00000270: 72cb 8e3d 8f98 b23d 40d6 753c 6f4b babb
00000280: 6d00 88bd cbcf a8bd 8b6c a23d f73e 1f3e
00000290: 36e6 6cbd fd86 bb3d 2b9e e5bd 660e 303d
000002a0: 3f10 c83d b1c0 c43c 4023 1ebe 86fa a23c
000002b0: 8b1c 79bc ee5f 0abe 6195 323d 779a 0a3e
000002c0: da90 bb3d cae9 823d 7d83 3a3b c975 703d
000002d0: 7495 613c 15a4 0e3e 039a 183e f153 d8bd
000002e0: 1ed6 a73c 87a4 193d c216 aabd 5fdb debd
000002f0: d5ba 993a a559 823c 4a79 af3d 1489 7f3c
00000300: cbc6 b8bc ab55 b4bd 2537 d4bc d64a eabd
00000310: b2c6 66bb 92e1 d4bd dd63 ac3d 6a8f 123d
00000320: db26 94bd 9b5f 0bbe f0ef 8fbd 1ca4 2bba
00000330: 90e1 f3bc 82c4 76bd 8e43 b7bd ceab 89bd
00000340: 56dd 283c bb39 ce3d 6e3d 91bd 4839 dfbd
00000350: 76bd 0bbe 96a1 4c3d a2c2 9cbd 1e52 423e
00000360: 4be4 f63d 8751 dfbb 8c94 68bd 6a21 653c
00000370: ff52 a5bc ea84 333e 21fe d43d 8ca9 6bbd
00000380: b292 89bb 1ba6 b9bc eac9 ccbd b48a c53c
00000390: a8b1 433d ed32 803c 85cb bb3d 6ace ed3c
000003a0: f175 88bb 37d8 e6bd 76d3 d53d c73e eebd
000003b0: a872 23bd fd45 a8bd 8e63 95bc 7d71 bc3d
000003c0: 16e5 803d 8a49 ebbd a444 fe3d bf1d bdbd
000003d0: b766 503d 3e6b 70bd 837b 463c 32ab fcbd
000003e0: e65c 00be 3bef ca3d fcfb 303d 2ba9 61bd
000003f0: 1f5a d93d 6baf 10be 9e8b 55bd 01f1 ab3c

sequential.0.bias f4 [32]
-0.094777465 -0.009534597 0.012920523 0.054884467 -0.0539833 0.025254255 -0.10879835 0.016996715
0.07726779 0.049452554 -0.035979904 -0.027285164 0.01546344 -0.06109863 0.021960761 -0.042026244
-0.009431649 0.06088788 -0.068100154 0.037673324 0.099087544 0.053825777 0.07159383 -0.0082554845
-0.022034815 -0.009652652 0.073213495 -0.010083756 -0.01790985 0.08591857 0.07805691 0.07845823
00000000: b01a c2bd 0037 1cbc 9ab0 533c 89ce 603d
00000010: 981d 5dbd 03e2 ce3c abd1 debd b23c 8b3c
00000020: 933e 9e3d c38e 4a3d aa5f 13bd 2385 dfbc
00000030: 5e5a 7d3c 8f42 7abd 0ee7 b33c b623 2cbd
00000040: 3487 1abc 9265 793d 1878 8bbd 584f 1a3d
00000050: 69ee ca3d 6b78 5c3d c99f 923d 0342 07bc
00000060: 5b82 b4bc 2826 1ebc f5f0 953d 5736 25bc
00000070: aeb7 92bc 13f6 af3d 4ddc 9f3d b5ae a03d

sequential.2.weight f4 [32]
0.9857833 1.0246491 0.9678471 1.0219617 1.0307611 0.9676398 1.0106307 1.0319382
1.0485502 0.9774093 1.003015 1.0178894 0.9916047 0.9614675 1.0112587 1.0039623
1.0547862 0.9461426 0.9941811 0.9550116 0.96568424 1.0228695 1.0101427 1.0226723
0.9913596 0.9773792 0.9955012 0.9511305 0.9716897 1.0333861 1.007036 1.019318
00000000: 4b5c 7c3f b427 833f d4c4 773f a4cf 823f
00000010: fbef 833f 3eb7 773f 595c 813f 8d16 843f
00000020: e536 863f 7f37 7a3f cc62 803f 334a 823f
00000030: ced9 7d3f bc22 763f ed70 813f d681 803f
00000040: 3c03 873f 6736 723f a782 7e3f a47b 743f
00000050: 1537 773f 63ed 823f 5b4c 813f ede6 823f
00000060: bec9 7d3f 8635 7a3f 2bd9 7e3f 4a7d 733f
00000070: a8c0 783f ff45 843f 8ee6 803f 0379 823f

sequential.2.bias f4 [32]
0.017392699 0.04199815 0.012728223 0.022186644 0.06279206 0.046857797 0.04627762 -0.0060779965
-0.02115614 -0.01002438 0.006053243 0.005194283 0.025797144 0.0077995444 -0.032104388 0.009650374
-0.03351557 -0.03954689 0.03697122 -0.021556005 0.0014382874 -0.0012454262 0.018708939 0.01212214
0.040226005 0.010256331 -0.011619241 -0.015952181 0.03698136 0.0032191412 0.014448085 0.02524262
00000000: 227b 8e3c 4106 2c3d 098a 503c c4c0 b53c
00000010: 2099 803d f6ed 3f3d 9a8d 3d3d ee29 c7bb
00000020: a44f adbc 4c3d 24bc 485a c63b ce34 aa3b
00000030: 8854 d33c 5293 ff3b e47f 03bd 9a1c 1e3c
00000040: 9f47 09bd ebfb 21bd 226f 173d 3896 b0bc
00000050: eb84 bc3a 923d a3ba 7d43 993c f19b 463c
00000060: 06c4 243d 2c0a 283c a15e 3ebc 26ae 82bc
00000070: c479 173d 3af8 523b a9b7 6c3c 9cc9 ce3c

sequential.2.running_mean f4 [32]
0.09978737 0.034202088 0.042157125 0.08247413 0.009993384 0.05797552 0.007602656 0.06180396
0.08996297 0.06008899 5.319083e-06 0.029839102 0.017823253 0.055766594 0.028991343 1.3392116e-06
0.052700315 0.27486536 0.041885242 0.2583033 0.249228 0.08302648 0.004367058 0.052148536
0.003654229 0.10721943 0.19684282 0.14055838 0.14825885 0.12934336 0.045643233 0.03167765
00000000: 525d cc3d 7d17 0c3d f3ac 2c3d 32e8 a83d
00000010: 4abb 233c bd77 6d3d b31f f93b 2626 7d3d
00000020: 813e b83d df1f 763d 937a b236 2271 f43c
00000030: 1202 923c 836b 643d 417f ed3c f6be b335
00000040: 49dc 573d 27bb 8c3e dc8f 2b3d 5540 843e
00000050: a035 7f3e ca09 aa3d 8a19 8f3b b499 553d
00000060: ca7b 6f3b dc95 db3d 2a91 493e 89ee 0f3e
00000070: 2bd1 173e 9672 043e 66f4 3a3d 6cc0 013d

sequential.2.running_var f4 [32]
0.01281338 0.005243407 0.0025471358 0.0059769796 0.0016489156 0.006243083 0.0011180557 0.006886811
0.008784768 0.0024280108 3.8979272e-07 0.005398509 0.001733071 0.0048994515 0.004057133 6.0360655e-08
0.0112443315 0.017611232 0.0062593394 0.021584826 0.010539802 0.009218667 0.00045214957 0.009222613
0.00047991046 0.011628317 0.018411445 0.009256387 0.011512237 0.012467813 0.0044542192 0.005664924
00000000: 36ef 513c e3d0 ab3b d9ed 263b 8ada c33b
00000010: 6d20 d83a c792 cc3b b98b 923a c2aa e13b
00000020: fded 0f3c 431f 1f3b b444 d134 fae5 b03b
00000030: 3728 e33a 948b a03b b3f1 843b 9f9f 8133
00000040: 253a 383c 6e45 903c 251b cd3b a9d2 b03c
00000050: 22af 2c3c e409 173c 7d0e ed39 711a 173c
00000060: 7e9c fb39 b284 3e3c 99d3 963c 1aa8 173c
00000070: d29d 3c3c cc45 4c3c b3f4 913b d4a0 b93b

sequential.4.weight f4 [32, 32, 5, 5]
0.045386612 -0.026032265 -0.0066898307 0.014843886 -0.013089753 -0.03949674 -0.0074305534 -0.042035602
0.027022699 -0.019364454 -0.002462044 0.016468376 -0.0072315014 -0.0262865 -0.034363188 -0.026027631
0.02615094 0.052102044 -0.0086539695 -0.021910047 -0.025936415 0.029877257 0.036969084 0.0265145
-0.0014292103 0.0081715565 0.022686727 -0.006598149 0.036063932 0.018325072 0.027582109 -0.013655182
-0.033500426 -0.011222199 -0.020952659 -0.04787968 -0.020483973 0.014137316 0.001622945 0.010981713
-0.039480943 -0.012772215 -0.010866127 -0.015464008 -0.011298829 -0.0025768087 -0.045321483 0.00408088
-0.006684625 -0.0026131042 -0.05179786 0.003798105 -0.00025535765 -0.060425837 -0.05163282 0.01972771
0.007986599 -0.013866013 -0.0040154825 -0.042549334 0.004650376 0.014761162 -0.065698944 0.016907094
-0.002835483 0.021530855 -0.004685825 0.0034044515 0.015157557 -0.024559027 0.005217129 -0.014392855
-0.0019568186 0.04236602 0.036466848 -0.03349147 -0.009191119 0.022286186 0.0018640998 -0.06179328
0.019478498 -0.016508756 -0.019626033 -0.04831302 -0.022476807 0.052702535 0.023531439 0.031530134
-0.020354265 -0.036111575 0.011267086 -0.0026735803 0.00023609027 0.016352834 0.0026883562 0.025808878
0.03108317 -0.017079469 -0.027172666 -0.048926637 0.010138528 -0.018369263 -0.014082054 -0.026423233
0.020358745 0.037044752 -0.022827387 0.028349763 0.024042815 0.012971568 -0.024202505 -0.017272867
-0.007070113 -0.0049194605 0.010213989 0.0032262409 0.020374348 0.01005656 -0.0029548272 -0.060560506
0.009469397 0.040331095 0.0010338981 -0.019737486 -0.05334589 0.009522831 -0.00021321824 0.04075798
0.013612911 -0.045520492 0.0071302545 -0.008456124 0.011988103 0.01043161 0.014830062 -0.0033993048
-0.019460076 -0.004171335 -0.033292707 0.0212879 0.012406831 0.0024227696 -0.0034408884 -0.0070306826
-0.0034325232 0.018704012 -0.012356849 -0.015331449 -0.017291969 -0.027900776 -0.008619915 -0.01849463
0.02044807 -0.04773382 0.0057552173 0.037136912 -0.014137001 -0.01092737 -0.0811962 0.02614365
-0.05070652 0.008284075 0.04543616 0.002572217 0.005389733 -0.033596918 -0.009704568 -0.008775939
-0.0011095576 0.006131321 0.040032927 -0.01712306 -0.025829095 0.010276818 0.046353802 0.012838509
0.0061467583 -0.017970622 0.032384302 -0.008022248 -0.023266798 -0.02098571 -0.061024822 -0.005807946
0.0060007963 -0.03116544 -0.03438114 0.0015854498 -0.08382158 -0.0058878656 0.030861612 0.035862006
0.02098069 -0.017473653 0.0023611279 0.026225744 -0.0015840504 0.015340315 0.003747499 -0.004678813
-0.010722526 -0.0071954513 -0.042966742 0.014116733 0.03893678 -0.037029814 0.020773226 0.019303245
0.024044186 0.027853271 0.03468577 -0.0045506735 -0.025091002 -0.053149156 -0.018860744 0.022813391
-0.019521363 0.021398442 0.0033690303 -0.0007935085 -0.032168657 -0.044065338 0.042004503 -0.019792352
0.044318173 0.032079093 0.026411537 0.016720427 0.044729494 0.01564294 0.016286595 0.0038921062
0.02058536 0.034373682 -0.020772912 -0.016350806 -0.025028968 0.027685015 -0.00042745488 -0.03393579
-0.036079817 0.0023514065 -0.0011701003 -0.039210383 0.02389296 0.0095830215 0.027102377 0.03140227
-0.040501997 -0.03516949 -0.028170506 -0.0003189539 -0.0066861045 0.03505947 0.026675142 0.0187131
00000000: 50e7 393d 9e41 d5bc 5e36 dbbb c533 733c
00000010: 6776 56bc 55c7 21bd 007c f3bb 862d 2cbd
00000020: b55e dd3c 34a2 9ebc 3e5a 21bb b0e8 863c
00000030: 3bf6 ecbb c956 d7bc 6ac0 0cbd e637 d5bc
00000040: 7f3a d63c f468 553d 61c9 0dbc b37c b3bc
00000050: 9b78 d4bc 26c1 f43c e56c 173d f034 d93c
00000060: 5754 bbba fee1 053c 84d9 b93c 4935 d8bb
00000070: c6b7 133d 761e 963c e0f3 e13c fcb9 5fbc
00000080: be37 09bd 50dd 37bc e9a4 abbc 7c1d 44bd
00000090: 01ce a7bc 33a0 673c ffb8 d43a a5ec 333c
000000a0: c5b6 21bd 8d42 51bc d707 32bc c05c 7dbc
000000b0: b91e 39bc addf 28bb 05a3 39bd e7b8 853b
000000c0: b30a dbbb 9d40 2bbb fe29 54bd a1e9 783b
000000d0: 86e1 85b9 1581 77bd f07c 53bd 029c a13c
000000e0: 39da 023c 462e 63bc 4f94 83bb 3648 2ebd
000000f0: 2e62 983b cdd8 713c 2b8d 86bd bf80 8a3c
00000100: 83d3 39bb 7a61 b03c 8d8b 99bb 381d 5f3b
00000110: 6757 783c 0330 c9bc 73f4 aa3b 02d0 6bbc
00000120: f83d 00bb fe87 2d3d 435e 153d 5a2e 09bd
00000130: 5996 16bc 8591 b63c cf54 f43a f31a 7dbd
00000140: 5f91 9f3c 5f3d 87bc c6c6 a0bc e0e3 45bd
00000150: 4821 b8bc 9dde 573d 01c5 c03c be25 013d
00000160: fdbd a6bc bbe9 13bd 9599 383c 3c37 2fbb
00000170: 008f 7739 61f6 853c 222f 303b 246d d33c
00000180: 22a2 fe3c 3eea 8bbc 3699 debc 4c67 48bd
00000190: 121c 263c 237b 96bc 6ab8 66bc 8975 d8bc
000001a0: 62c7 a63c 3dbc 173d 8000 bbbc c33d e83c
000001b0: 70f5 c43c b386 543c 5544 c6bc d47f 8dbc
000001c0: 68ac e7bb 6d33 a1bb 9358 273c 576f 533b
000001d0: 1be8 a63c 45c4 243c c6a5 41bb 4b0e 78bd
000001e0: 8825 1b3c 3832 253d dd83 873a 82b0 a1bc
000001f0: 3881 5abd a605 1c3c 5693 5fb9 d7f1 263d
00000200: b008 5f3c b273 3abd e9a4 e93b 8e8b 0abc
00000210: c069 443c 58e9 2a3c caf9 723c dfc6 5ebb
00000220: bd6a 9fbc b2af 88bb ef5d 08bd f663 ae3c
00000230: 0546 4b3c 54c7 1e3b 8780 61bb a461 e6bb
00000240: 2ff4 60bb 2839 993c 6274 4abc c230 7bbc
00000250: e3a7 8dbc 2b90 e4bc 8b3a 0dbc 0d82 97bc
00000260: b682 a73c 8a84 43bd 4396 bc3b e01c 183d
00000270: e19e 67bc b608 33bc 314a a6bd 352b d63c
00000280: a4b1 4fbd eeb9 073c 441b 3a3d a492 283b
00000290: 5b9c b03b ec9c 09bd e9ff 1ebc f5c8 0fbc
000002a0: 936e 91ba 40e9 c83b 91f9 233d a945 8cbc
000002b0: 8a97 d3bc 1960 283c 7cdd 3d3d 9c58 523c
000002c0: bf6a c93b 2037 93bc 67a5 043d bf6f 03bc
000002d0: 039a bebc 39ea abbc 2af5 79bd 9550 bebb
000002e0: 54a2 c43b aa4e ffbc 3dd3 0cbd dece cf3a
000002f0: a6aa abbd ffee c0bb 7ed1 fc3c 0ae4 123d
00000300: b2df ab3c e824 8fbc 27bd 1a3b 5fd7 d63c
00000310: e99f cfba f255 7b3c 9a98 753b ba50 99bb
00000320: 89ad 2fbc d2c7 ebbb e5fd 2fbd df49 673c
00000330: 2c7c 1f3d 93ac 17bd 9d2c aa3c d721 9e3c
00000340: 50f8 c43c 8b2c e43c aa12 0e3d d11d 95bb
00000350: a58b cdbc eeb2 59bd d981 9abc 26e3 ba3c
00000360: 44eb 9fbc c94b af3c f3ca 5c3b 7403 50ba
00000370: 48c3 03bd db7d 34bd ea0c 2c3d 9223 a2bc
00000380: f986 353d 5e65 033d 025d d83c 47f9 883c
00000390: 4636 373d 9f25 803c 776b 853c b512 7f3b
000003a0: a1a2 a83c 6bcb 0c3d f42b aabc 20f2 85bc
000003b0: 8d09 cdbc afcb e23c 061c e0b9 4100 0bbd
000003c0: 6ec8 13bd 0e1a 1a3b 0d5e 99ba 119b 20bd
000003d0: 2bbb c33c 1b02 1d3c ce05 de3c ab9f 003d
000003e0: 6ce5 25bd e20d 10bd d5c5 e6bc 4539 a7b9
000003f0: 1c17 dbbb 859a 0f3d d485 da3c 374c 993c

sequential.4.bias f4 [32]
0.02785793 -0.036482718 0.012822183 0.015797868 0.010223168 -0.00859354 0.0068691312 -0.012763759
-0.06139502 -0.03238052 -0.006007662 -0.0041235825 0.0052645644 -0.028319035 0.0039654346 -0.019955542
0.01609631 -0.015001009 0.020036161 -0.011576343 0.040891975 -9.5653144e-05 -0.010384725 0.02236659
0.013242068 -0.07554816 -0.029570296 -0.011233327 -0.028785016 -0.02270582 -0.014218344 -0.009727254
00000000: 5036 e43c e76e 15bd 2214 523c 886a 813c
00000010: 137f 273c ebcb 0cbc 7316 e13b 161f 51bc
00000020: 5879 7bbd 70a1 04bd ecdb c4bb 1e1f 87bb
00000030: 5e82 ac3b 52fd e7bc 7af0 813b ce79 a3bc
00000040: 69dc 833c cbc6 75bc e022 a43c b4aa 3dbc
00000050: 587e 273d 6499 c8b8 b224 2abc 243a b73c
00000060: 42f5 583c feb8 9abd 683d f2bc fd0b 38bc
00000070: 8ece ebbc 8e01 babc 0ff4 68bc 0f5f 1fbc

sequential.6.weight f4 [32]
1.0022154 0.9808842 1.0517399 0.9794976 0.9865789 1.0006701 1.0211929 0.99624676
1.022104 0.9633197 0.99243015 1.0263541 1.0211909 0.9922656 1.0096196 0.99513954
0.9950617 1.0006565 0.98851323 1.0213281 0.99642205 0.9781388 1.0009965 1.003104
0.99354744 0.9568121 1.0280218 0.99118847 1.0027246 1.018309 0.98666865 0.9912786
00000000: 9848 803f 3a1b 7b3f 6a9f 863f 5bc0 7a3f
00000010: 6f90 7c3f f515 803f 73b6 823f 070a 7f3f
00000020: 4ed4 823f 1f9c 763f e70f 7e3f 925f 833f
00000030: 62b6 823f 1e05 7e3f 373b 813f 77c1 7e3f
00000040: 5dbc 7e3f 8315 803f 340f 7d3f e1ba 823f
00000050: 8415 7f3f 4e67 7a3f a720 803f b665 803f
00000060: 2059 7e3f a3f1 743f 3896 833f 87be 7d3f
00000070: 4859 803f f357 823f 5196 7c3f 6fc4 7d3f

sequential.6.bias f4 [32]
-0.011998415 -0.005681357 -0.014472325 -0.010756782 -0.010508681 -0.0042943885 -0.012471157 -0.0050042644
-0.005085527 0.0025379106 -0.007869814 -0.011928442 -0.0021154927 -0.0005671883 -0.0117212115 0.002814174
-0.0056569614 -0.0075647575 -0.0015015234 -0.010077189 -0.013145294 -0.009610119 -0.006738313 -0.01087758
-0.004033235 -0.0048456225 0.008601925 -0.009500101 -0.0037068839 -0.014277457 -0.01778557 -0.013737999
00000000: 0095 44bc ad2a babb 551d 6dbc 373d 30bc
00000010: 9a2c 2cbc f1b7 8cbb d353 4cbc d0fa a3bb
00000020: 7ea4 a6bb 1353 263b 64f0 00bc 836f 43bc
00000030: 14a4 0abb 5daf 14ba 530a 40bc 016e 383b
00000040: 085e b9bb c9e1 f7bb c4ce c4ba cb1a 25bc
00000050: 5c5f 57bc c373 1dbc 11cd dcbb e137 32bc
00000060: 3a29 84bb 07c8 9ebb 17ef 0c3c 50a6 1bbc
00000070: 31ef 72bb ffeb 69bc 0bb3 91bc 5815 61bc

sequential.6.running_mean f4 [32]
0.12705152 0.1057717 0.29382786 0.09655221 0.16432637 0.23379211 0.19611341 0.08733198
0.18815371 0.064444706 0.08936979 0.10818613 0.26659036 0.13999377 0.11736228 0.072715156
0.18556261 0.116948806 0.09684066 0.13203754 0.17212187 0.104941085 0.17133027 0.09970879
0.10206745 0.056063037 0.1604946 0.07822921 0.12079513 0.19243239 0.13401255 0.17869262
00000000: cb19 023e d59e d83d 9b70 963e 2abd c53d
00000010: 2c45 283e 3367 6f3e f4d1 483e 1cdb b23d
00000020: 5eab 403e 96fb 833d 8207 b73d b190 dd3d
00000030: 887e 883e 875a 0f3e a35b f03d afeb 943d
00000040: 2004 3e3e db82 ef3d 6554 c63d d934 073e
00000050: b740 303e 5aeb d63d 3471 2f3e 1f34 cc3d
00000060: bd08 d13d 5ba2 653d b258 243e a336 a03d
00000070: 7063 f73d ff0c 453e 963a 093e 33fb 363e

sequential.6.running_var f4 [32]
0.06280833 0.05201691 0.13980162 0.05089535 0.07391695 0.12251665 0.08816905 0.046669297
0.098162256 0.0327722 0.04619639 0.052614763 0.120536916 0.07226301 0.062304057 0.036635987
0.09872846 0.054142363 0.04742967 0.070294835 0.0763626 0.05285171 0.072521634 0.052404616
0.04953685 0.026042217 0.07685172 0.04027274 0.053758044 0.0882722 0.06982091 0.09927629
00000000: a7a1 803d af0f 553d 2828 0f3e a477 503d
00000010: c561 973d 02ea fa3d fa91 b43d 4e28 3f3d
00000020: 4b09 c93d 243c 063d 6d38 3d3d 9482 573d
00000030: 0fdc f63d a1fe 933d 8a32 7f3d 9e0f 163d
00000040: 2632 ca3d 62c4 5d3d 9d45 423d bdf6 8f3d
00000050: ff63 9c3d 097b 583d 3986 943d 39a6 563d
00000060: 27e7 4a3d 7d56 d53c 6f64 9d3d 07f5 243d
00000070: 6531 5c3d 0ec8 b43d 44fe 8e3d 5e51 cb3d

sequential.8.weight f4 [64, 32, 5, 5]
0.020217795 -0.0029248027 0.0020156163 -0.011406611 0.024158625 -0.030659532 -0.0063794176 0.010743288
-0.04842646 0.006078675 0.045632143 -0.06052769 0.027202306 0.0074145864 0.02160896 0.0043604136
0.008016231 -0.0030372716 0.024658097 0.0137203885 0.021641415 -0.042931143 0.011620975 -0.009241312
-0.009844022 0.016487893 -0.0124659585 -0.008083268 -0.0051710787 0.01352354 -0.0034760784 0.00841828
0.023849085 -0.004226591 0.008217224 -0.025125893 -0.02021405 -0.0018803796 0.010307616 -0.018834747
-0.0063727284 -0.00059448683 0.029894063 0.043842506 0.008675465 0.016215818 -0.03989745 0.035933312
-0.01365445 0.0021348097 0.01306436 0.006340286 0.07593081 -0.009941853 0.04623061 -0.024242701
-0.026174996 0.041902967 0.028010584 0.0016197005 0.0065131 0.0462307 -0.002520169 0.0014874412
0.033562522 -0.047691356 -0.04580205 -0.021920456 0.004374465 -0.018066918 -0.011347718 0.015687807
-4.4446573e-05 -0.0025560658 -0.0130913 0.0073289806 -0.043589395 -0.015871387 -0.029655656 0.030641122
0.020747961 0.0011054933 -0.018524649 0.013916936 -0.00398102 -0.028257567 0.02176735 0.027801733
0.027363483 0.026139002 0.008007426 0.01418516 -0.008461899 -0.009836021 -0.015145635 0.00848047
0.012076548 -0.007098875 0.016294565 0.013207 -0.008738814 0.0005449391 -0.021671006 0.020306056
0.02878746 -0.0081817275 -0.024803307 0.008886874 -0.048238743 -0.016119692 -0.014435778 0.0028925827
0.02723568 -0.013212814 0.019455608 0.010634823 -0.004681871 0.023208365 -0.03037246 -0.0068185464
0.010763876 -0.024391145 -0.0073230406 -0.03227767 -0.018139662 0.02249714 0.0074047875 0.0015594362
-0.037416913 0.03369279 -0.030239094 0.034559473 0.0016590973 -0.042892244 0.020292655 -0.011331495
-0.029578822 0.0041134683 -0.029762499 -0.0098326085 0.06396833 -0.0138261635 0.003116123 -0.00035663266
0.0033815268 0.0067552156 -0.020517746 -0.0037123114 -0.008161386 -0.007405207 -0.006786288 0.012378296
0.02694273 -0.032260336 0.013760005 0.027430829 -0.013770512 -0.0005799747 0.021712622 -0.009724088
0.014865256 0.012756683 -0.015245507 -0.020185495 0.007628095 -0.021484612 -0.019486556 0.0075305384
0.0007990305 -0.016996074 0.007741796 -0.015000195 0.04530417 -0.025231758 0.012687867 -0.027027015
0.02256679 -0.02358714 -0.0016046155 0.018330853 -0.015267582 -0.00451393 -0.028255025 -0.02123563
0.0038949668 -0.012369163 -0.012853294 0.00091367203 0.011882709 0.012128295 0.0036581848 -0.01181985
0.038493875 -0.041006632 -0.012896806 -0.0073644714 0.01977344 0.009148451 -0.05604581 0.02432357
-0.011864855 0.017283194 -0.016009118 0.023917591 -0.04894037 -0.0126071675 0.030888198 -0.0079981545
0.0013545109 0.009422622 0.017092885 0.008169568 -0.010405393 -0.0022860207 0.0031136845 -0.00392756
0.007607326 -3.2168107e-05 0.0070661018 0.023256652 -0.008830746 -0.004410079 -0.020079898 -0.01954569
0.0007471291 0.050081465 0.012828919 -0.029672628 -0.03655137 0.017976208 -0.024880406 0.006344561
0.01384678 0.029265188 0.0043775192 -0.0051689576 -0.015592094 -0.007901292 0.011778845 -0.029667515
-0.032684766 0.022120185 0.010715877 0.00472175 -0.0016789107 0.004126892 0.041910924 0.002365475
-0.026281439 -0.03855021 -0.0031322662 0.019098755 0.010882081 -0.009650433 0.015484418 0.037206158
00000000: ca9f a53c 0cae 3fbb 6e18 043b cbe2 3abc
00000010: 4fe8 c53c b329 fbbc 6f0a d1bb 9e04 303c
00000020: d35a 46bd 9f2f c73b c5e8 3a3d e2eb 77bd
00000030: 5fd7 de3c 0ff6 f23b 4605 b13c cde1 8e3b
00000040: 8256 033c f60c 47bb c7ff c93c 7bcb 603c
00000050: 5649 b13c 91d8 2fbd e765 3e3c df68 17bc
00000060: d248 21bc 9e11 873c 053e 4cbc af6f 04bc
00000070: 2772 a9bb d791 5d3c ebce 63bb d3ec 093c
00000080: 285f c33c 377f 8abb 89a1 063c d1d4 cdbc
00000090: ef97 a5bc 1277 f6ba 46e1 283c 544b 9abc
000000a0: 52d2 d0bb 56d7 1bba 65e4 f43c 3394 333d
000000b0: 8a23 0e3c 09d7 843c 826b 23bd cf2e 133d
000000c0: eab6 5fbc 2ae8 0b3b e60b 563c 2dc2 cf3b
000000d0: 9d81 9b3d 27e3 22bc 4f5c 3d3d a198 c6bc
000000e0: f26c d6bc 72a2 2b3d 7476 e53c 214c d43a
000000f0: d86b d53b 675c 3d3d 6b29 25bb 3ff6 c23a
00000100: db78 093d 0358 43bd ee9a 3bbd 8792 b3bc
00000110: ac57 8f3b 1301 94bc c7eb 39bc b783 803c
00000120: 256c 3ab8 ab83 27bb e47c 56bc f227 f03b
00000130: cb8a 32bd b604 82bc 6bf0 f2bc 1703 fb3c
00000140: a1f7 a93c 33e6 903a 01c1 97bc dc03 643c
00000150: 3773 82bb 6a7c e7bc 7151 b23c 76c0 e33c
00000160: 6229 e03c 7621 d63c 9431 033c e068 683c
00000170: c7a3 0abc 4327 21bc 6625 78bc abf1 0a3c
00000180: b7dc 453c ae9d e8bb 2e7c 853c 2c62 583c
00000190: 3e2d 0fbc 3eda 0e3a 6587 b1bc e358 a63c
000001a0: aed3 eb3c a70c 06bc 4e30 cbbc 409a 113c
000001b0: fd95 45bd 720d 84bc 0b84 6cbc 7c91 3d3b
000001c0: 5c1d df3c 8f7a 58bc 5e61 9f3c ae3d 2e3c
000001d0: 616a 99bb 781f be3c aacf f8bc 1d6e dfbb
000001e0: f85a 303c f0cf c7bc 1ef6 efbb 9735 04bd
000001f0: a199 94bc ec4b b83c dca3 f23b ff65 cc3a
00000200: 7a42 19bd 7301 0a3d fab7 f7bc 3c8e 0d3d
00000210: 1176 d93a c7af 2fbd c83c a63c bca7 39bc
00000220: 494f f2bc 46ca 863b 7cd0 f3bc f318 21bc
00000230: d401 833d 2287 62bc de37 4c3b 6dfa bab9
00000240: 9b9c 5d3b db5a dd3b d514 a8bc 404a 73bb
00000250: 55b7 05bc 61a7 f2bb 835f debb 56ce 4a3c
00000260: 00b7 dc3c 6a23 04bd a571 613c 9eb6 e03c
00000270: b79d 61bc 7109 18ba abde b13c c851 1fbc
00000280: 678d 733c 6801 513c 4ac8 79bc 0d5c a5bc
00000290: 19f5 f93b 7f00 b0bc 45a2 9fbc bcc2 f63b
000002a0: 0776 513a 5a3b 8bbc e4ae fd3b 61c3 75bc
000002b0: de90 393d d5b2 cebc c5e0 4f3c c267 ddbc
000002c0: fddd b83c d139 c1bc f651 d2ba 962a 963c
000002d0: e124 7abc 97e9 93bb 1577 e7bc 58f6 adbc
000002e0: b342 7f3b 08a8 4abc 9f96 52bc 7e83 6f3a
000002f0: b2af 423c c2b5 463c 28be 6f3b 0ba8 41bc
00000300: c1ab 1d3d 92f6 27bd 204d 53bc aa51 f1bb
00000310: e9fb a13c 62e3 153c 4b90 65bd 3942 c73c
00000320: cf64 42bc 7c95 8d3c 8e25 83bc d3ee c33c
00000330: b375 48bd 4b8e 4ebc 3f09 fd3c b10a 03bc
00000340: d889 b13a 5761 1a3c 6106 8c3c a7d9 053c
00000350: 627b 2abc 10d1 15bb f50e 4c3b c3b2 80bb
00000360: e046 f93b 3eec 06b8 c28a e73b bc84 be3c
00000370: d5ae 10bc 6d82 90bb 997e a4bc 481e a0bc
00000380: fcda 433a 3922 4d3d 6330 523c 0314 f3bc
00000390: e4b6 15bd d742 933c fed1 cbbc 09e6 cf3b
000003a0: 9bdd 623c 8cbd ef3c 4b71 8f3b 5c60 a9bb
000003b0: fb75 7fbc 6c74 01bc 0ffc 403c 4a09 f3bc
000003c0: 76e0 05bd 6435 b53c a591 2f3c e9b8 9a3b
000003d0: e50e dcba e13a 873b caaa 2b3d 1606 1b3b
000003e0: 2c4c d7bc d3e6 1dbd b546 4dbb fe74 9c3c
000003f0: c24a 323c da1c 1ebc 5bb2 7d3c 7c65 183d

sequential.8.bias f4 [64]
0.014413793 0.025706759 0.0074443053 -0.033431247 -0.024814358 -0.00690279 -0.016709536 0.0109174
-0.001207541 0.008292114 -0.030097252 -0.034826472 -0.029540656 0.026578272 0.012017391 0.02239658
0.007676872 0.004545858 0.0026435896 0.028619507 -0.019549897 0.02335883 0.025596587 -0.026627123
-0.026971018 -0.03529545 -0.017879507 -0.022296451 -0.0294842 0.015606351 0.014378655 0.004391057
-0.0037503953 -0.012774589 -0.0014149752 0.0145589635 -0.0038350052 -0.034489237 0.030316714 -0.023298547
0.011300948 -0.034396533 0.014676587 0.003801469 0.034508213 0.0026312026 -0.018327128 0.0059740166
0.020293446 0.0018454841 -0.012479227 -0.018317899 0.03225248 -0.016153775 -0.030439615 0.009976876
0.008922459 -0.000522347 0.030344455 -0.0010639551 0.010509557 0.022592768 -0.023532715 -0.006075001
00000000: d427 6c3c fb96 d23c 5cef f33b 34ef 08bd
00000010: 7b47 cbbc cd30 e2bb 70e2 88bc e5de 323c
00000020: 5a46 9eba a6db 073c 838e f6bc 34a6 0ebd
00000030: 3fff f1bc adba d93c 97e4 443c 0879 b73c
00000040: 458e fb3b 6cf5 943b 1340 2d3b 7573 ea3c
00000050: 1b27 a0bc 045b bf3c efaf d13c 2021 dabc
00000060: 53f2 dcbc f691 10bd 0b78 92bc 0ca7 b6bc
00000070: d988 f1bc c8b1 7f3c 7394 6b3c dbe2 8f3b
00000080: 31c9 75bb 824c 51bc b076 b9ba b888 6e3c
00000090: b654 7bbb 9644 0dbd c25a f83c 98dc bebc
000000a0: 9d27 393c 61e3 0cbd 1176 703c 1122 793b
000000b0: 7c58 0d3d 4170 2c3b c622 96bc afc1 c33b
000000c0: 713e a63c 2ce4 f13a ac75 4cbc 6b0f 96bc
000000d0: 2d1b 043d ec54 84bc 805c f9bc 0d76 233c
000000e0: 812f 123c 1dee 08ba ef94 f83c 6974 8bba
000000f0: 4730 2c3c 7814 b93c aec7 c0bc cd10 c7bb

sequential.9.weight f4 [64]
1.2873447 1.2167339 1.2635236 1.293163 1.2556998 1.2034242 1.2455488 1.2495826
1.2563487 1.2450696 1.228034 1.2582397 1.3169231 1.2675968 1.2633474 1.2782809
1.2459897 1.2739316 1.2402178 1.2318885 1.2082622 1.2414974 1.2417407 1.2438824
1.3023138 1.256813 1.2561024 1.2780205 1.2616028 1.251578 1.2583638 1.2784485
1.2751892 1.2296021 1.2543515 1.2688204 1.2373275 1.2076833 1.2573457 1.278492
1.1993964 1.2530235 1.2591236 1.2577584 1.2587862 1.2318908 1.2609841 1.2258815
1.31674 1.266603 1.2928317 1.2317754 1.2200224 1.2827652 1.318368 1.1953901
1.2511698 1.2669942 1.2502788 1.2901971 1.2496333 1.2804441 1.2745456 1.2670815
00000000: b6c7 a43f f0bd 9b3f 24bb a13f 5d86 a53f
00000010: c5ba a03f ce09 9a3f 256e 9f3f 53f2 9f3f
00000020: 09d0 a03f 715e 9f3f 3830 9d3f 000e a13f
00000030: f090 a83f 9d40 a23f 5eb5 a13f b59e a33f
00000040: 977c 9f3f 3110 a33f 75bf 9e3f 86ae 9d3f
00000050: 56a8 9a3f 63e9 9e3f 5cf1 9e3f 8a37 9f3f
00000060: 38b2 a63f 40df a03f f7c7 a03f 2d96 a33f
00000070: 337c a13f b533 a03f 1112 a13f 33a4 a33f
00000080: 6639 a33f 9a63 9d3f 978e a03f b568 a23f
00000090: bf60 9e3f 5e95 9a3f b4f0 a03f a0a5 a33f
000000a0: d285 993f 1363 a03f f62a a13f 3afe a03f
000000b0: e81f a13f 99ae 9d3f ed67 a13f afe9 9c3f
000000c0: f08a a83f 0c20 a23f 827b a53f d1aa 9d3f
000000d0: b229 9c3f a631 a43f 48c0 a83f 8b02 993f
000000e0: 5526 a03f de2c a23f 2309 a03f 2e25 a53f
000000f0: fcf3 9f3f 98e5 a33f 4f24 a33f ba2f a23f

sequential.9.bias f4 [64]
0.020041518 0.018576933 -0.0010039039 0.0026953442 0.024791757 0.010638912 0.012050658 0.012108927
0.02111275 0.016842132 0.0151171 0.0021334782 0.00033838957 0.021899974 0.008502884 0.018805724
-0.0028001552 0.016544884 0.003658911 0.01525548 -0.0013290303 0.016071942 -0.00051460566 0.0005941667
0.016209621 0.027624996 -0.0018526386 -0.00019957105 -0.0024775593 0.0013178128 -0.0027978176 0.007834723
0.0076731597 -0.014324137 0.019393478 0.0048943036 -0.0006963695 0.015626535 0.0029583124 0.00629792
-0.0151210325 0.012040387 0.00957016 0.0046384777 -0.0030903805 0.0055804043 0.00630628 0.0053813052
0.0027428332 0.021530053 -0.017675238 0.010937891 0.0132408505 0.0052026925 0.0037114692 0.0020061557
-0.00057807204 0.021666743 -0.0019695645 0.005126625 0.002853819 0.015863603 0.0094973 0.0017718787
00000000: 1c2e a43c a72e 983c 6d95 83ba 5fa4 303b
00000010: 1518 cb3c d54e 2e3c 2070 453c 8564 463c
00000020: a5f4 ac3c 83f8 893c b7ad 773c d3d1 0b3b
00000030: e169 b139 9367 b33c ae4f 0b3c 760e 9a3c
00000040: cf82 37bb 2389 873c 57ca 6f3b 1ff2 793c
00000050: db32 aeba 4ea9 833c 9ae6 06ba dac1 1b3a
00000060: 0aca 843c d14d e23c 3cd4 f2ba f243 51b9
00000070: 8c5e 22bb 76ba ac3a 975b 37bb 365d 003c
00000080: 216f fb3b c9af 6abc 12df 9e3c 6560 a03b
00000090: 918c 36ba 3803 803c 3fe0 413b c85e ce3b
000000a0: 35be 77bc 0b45 453c 29cc 1c3c 5ffe 973b
000000b0: fb87 4abb d3db b63b e9a4 ce3b a955 b03b
000000c0: 1bc1 333b cb5f b03c a9cb 90bc d734 333c
000000d0: 27f0 583c 597b aa3b 1f3c 733b b579 033b
000000e0: c289 17ba 747e b13c cf13 01bb 3ffd a73b
000000f0: 2307 3b3b 63f4 813c 909a 1b3c 623e e83a

sequential.9.running_mean f4 [64]
0.016597915 0.027423847 -0.037741795 -0.03866852 -0.11062189 -0.022153184 -0.20616195 -0.06586987
-0.07498301 0.0802315 0.06785868 0.12856014 0.13967435 -0.12117717 -0.07391533 -0.1197558
-0.07743039 -0.2584052 -0.08476872 -0.1937128 -0.05252529 0.0491185 -0.5613474 -0.00630871
-0.07320683 -0.11849239 -0.07565829 -0.1987481 -0.09756447 0.12578623 0.30530545 0.080312625
-0.1587432 -0.055756375 -0.21509837 0.110921465 0.09787788 -0.096174434 -0.20247917 -0.13664281
0.15303382 0.16499026 0.12317486 0.010362786 -0.029389422 -0.036298376 -0.12346514 0.039521083
0.08224614 -0.3327274 -0.43317407 -0.31515017 -0.12333762 -0.09830081 -0.10770926 0.11439556
-0.0029304214 -0.07777903 0.06608788 -0.16530718 -0.07434652 -0.06492542 -0.03994075 0.0063290317
00000000: 5af8 873c faa7 e03c 2497 1abd e262 1ebd
00000010: bb8d e2bd 987a b5bc 1e1c 53be c8e6 86bd
00000020: b190 99bd 6a50 a43d 7ef9 8a3d 45a5 033e
00000030: cb06 0f3e bc2b f8bd ec60 97bd 8742 f5bd
00000040: d393 9ebd b04d 84be 399b adbd a65c 46be
00000050: c224 57bd 7b30 493d 77b4 0fbf 4cb9 cebb
00000060: 76ed 95bd 23ac f2bd bcf2 9abd 9f84 4bbe
00000070: e1cf c7bd 1bce 003e ff50 9c3e f27a a43d
00000080: 948d 22be cc60 64bd bf42 5cbe cb2a e33d
00000090: 3374 c83d 1af7 c4bd b356 4fbe 18ec 0bbe
000000a0: e6b4 1c3e 35f3 283e 1a43 fc3d adc8 293c
000000b0: 16c2 f0bc 9bad 14bd 4bdb fcbd dce0 213d
000000c0: aa70 a83d 3f5b aabe fec8 ddbe 5d5b a1be
000000d0: 6f98 fcbd ef51 c9bd ac96 dcbd 3848 ea3d
000000e0: 500c 40bb 9d4a 9fbd 1559 873d 4946 29be
000000f0: fd42 98bd 9ef7 84bd e998 23bd c463 cf3b

sequential.9.running_var f4 [64]
0.3288446 0.3404282 0.3793847 0.3053892 0.35377118 0.3759675 0.32850122 0.3431771
0.3239343 0.35270473 0.42696 0.33465317 0.39495614 0.3403097 0.36411342 0.35481653
0.36080796 0.36656636 0.34236136 0.38492408 0.4224191 0.3844749 0.39007366 0.33393043
0.32884702 0.29609647 0.35065404 0.3651734 0.4112753 0.32828954 0.3859945 0.39318362
0.39387888 0.34998485 0.35965863 0.3539583 0.3943913 0.32423082 0.36412126 0.37142858
0.38123566 0.37412754 0.33371112 0.31803665 0.36079338 0.3621379 0.38136697 0.39964807
0.35760957 0.3258392 0.43776846 0.34883702 0.37420395 0.3389995 0.33038935 0.4099172
0.3437816 0.32957706 0.3717282 0.3928022 0.34841755 0.35485163 0.3252996 0.39360827
00000000: 525e a83e 9b4c ae3e b63e c23e f95b 9c3e
00000010: 7f21 b53e d07e c03e 5031 a83e e9b4 af3e
00000020: b7da a53e b795 b43e 809a da3e a957 ab3e
00000030: b137 ca3e 133d ae3e 136d ba3e 83aa b53e
00000040: d2bb b83e 96ae bb3e fd49 af3e c514 c53e
00000050: 5147 d83e e5d9 c43e bcb7 c73e eef8 aa3e
00000060: a35e a83e f599 973e ed88 b33e 02f8 ba3e
00000070: ad92 d23e 9115 a83e 12a1 c53e 5d4f c93e
00000080: 7eaa c93e 3731 b33e 2d25 b83e 063a b53e
00000090: a8ed c93e 9501 a63e 1a6e ba3e e32b be3e
000000a0: 5231 c33e a58d bf3e 2fdc aa3e b3d5 a23e
000000b0: e9b9 b83e 246a b93e 8842 c33e ac9e cc3e
000000c0: 9a18 b73e 65d4 a63e 3023 e03e c49a b23e
000000d0: a997 bf3e 5891 ad3e cb28 a93e abe0 d13e
000000e0: 2404 b03e 53be a83e 2953 be3e 5f1d c93e
000000f0: c963 b23e 1daf b53e ab8d a63e 0687 c93e

sequential.13.weight f4 [64, 1024]
0.01096708 -0.0052784313 -0.04779105 0.03609843 0.015564858 -0.049102813 -0.05084867 -0.018018905
0.015466267 -0.016844587 0.022941958 0.0022007485 0.0077560423 0.04988461 0.05770078 0.01657736
0.00063140434 0.045920834 0.024915379 0.030601384 0.017462144 0.024383802 0.041947708 0.022139858
-0.0001733603 0.006872052 0.075592086 0.03904099 -0.017636253 -0.060196072 -0.056224797 0.011924399
0.008925396 0.012477085 0.010280684 0.02885736 -0.043254107 0.016255166 0.047704045 -0.021550141
-0.011705833 0.014837637 -0.010651558 0.013467679 0.002746698 -0.035153404 0.013132422 -0.021948952
-0.025719538 0.013716587 -0.017267616 0.015116151 -0.027263673 -0.045367666 -0.00856464 0.04534698
-0.005395991 -0.118681625 -0.035846606 0.0132571515 -0.006645749 -0.024610996 0.012948409 0.0069584665
0.056857232 0.08666284 0.06326725 0.034462046 -0.0014330822 0.019734312 0.09607103 0.027111644
-0.029064665 0.007216279 -0.019031974 0.0023468155 -0.0029264519 0.048401617 0.00079103734 0.029579021
0.032016333 0.042113926 -0.014928609 0.0377755 -0.011428271 0.024868617 0.027201533 0.05203712
-0.005238978 -0.02688432 0.013930591 0.065398514 -0.010491483 0.01677048 0.002965902 0.0034645505
-0.024866596 -0.004245711 0.022459773 0.029203435 -0.022368789 -0.031369366 0.020274613 -0.0022465428
-0.019125747 0.0011468431 0.0037306794 -0.021346858 -0.037732575 0.00949265 -0.01942934 0.047495432
-0.008348957 -0.04229838 0.0007838865 -0.012950454 -0.014090719 -0.05740126 -0.021022825 0.02140989
0.030890403 -0.007248016 -0.00031764322 0.00118062 -0.0052941823 -0.008495135 -0.047859624 -0.015794717
0.030132743 0.041278433 0.012279891 0.01308045 -0.0034303681 0.032348722 -0.028538607 0.03605727
0.028944327 0.06478875 0.04620034 0.016021337 -0.020625826 -0.001225645 0.00035112913 -0.008156603
-0.0022685563 -0.019893967 -0.015825298 -0.0524485 -0.0064401757 -0.041177303 -0.044736948 -0.0111870095
0.030557284 -0.03331803 -0.04756093 -0.004300682 -0.03651619 -0.038284056 0.026647555 0.025036138
0.022559552 0.007083711 -0.0166893 -0.02127615 0.040136512 -0.0042047 0.011721846 0.0073993728
0.0031405895 0.035312098 -0.0039149374 0.014915519 -0.008159505 0.011097148 0.01595836 -0.02746122
-0.030267427 0.04244563 0.042650964 -0.012088086 0.01794545 -0.00025728994 -0.027966462 0.03661314
0.03766093 -0.0073497775 0.03266158 0.08449272 0.047499396 -0.031900432 0.04773471 0.009653202
0.02048593 -0.047381837 -0.01332775 0.017969271 -0.01623304 -0.083402224 -0.007352626 -0.03147423
-0.004735746 -0.06103483 0.053865213 0.021087583 -0.024859026 -0.030911688 0.01876624 0.037618075
-0.0034469364 -0.025968838 -0.021522524 0.018856866 -0.018750958 0.0085892845 -0.028396703 -0.036122896
-0.0400639 -0.019334514 -0.0049352157 0.00668732 0.017019399 -0.024047881 -0.003174912 -0.04112233
0.0149901835 -0.023399753 0.015059383 -0.017050067 -0.015402565 0.005185421 -0.020896379 -0.0051418208
0.04341139 -0.014018753 -0.02526544 -0.019380026 -0.04147151 0.030415738 -0.034356076 -0.024203748
-0.009059174 -2.1008514e-06 -0.04146891 -0.022005565 0.029749101 0.028346889 0.032996096 -0.05955577
-0.0024658223 0.06750513 0.030535987 0.040106963 -0.021349706 -0.0015114874 -0.024240881 -0.017876185
00000000: 44af 333c b1f6 acbb 8cc0 43bd f3db 133d
00000010: bf03 7f3c 0820 49bd b246 50bd 629c 93bc
00000020: 3a66 7d3c a9fd 89bc c6f0 bb3c 6f3a 103b
00000030: 6626 fe3b ce53 4c3d a757 6c3d 3ecd 873c
00000040: d484 253a 7c17 3c3d 561b cc3c c1af fa3c
00000050: c50c 8f3c 8ac0 c73c 5cd1 2b3d a65e b53c
00000060: 0dc8 35b9 f32e e13b 06d0 9a3d 72e9 1f3d
00000070: e779 90bc 2890 76bd f94b 66bd 8e5e 433c
00000080: d33b 123c b06c 4c3c 5070 283c 4566 ec3c
00000090: 382b 31bd 8e29 853c 5165 433d ec89 b0bc
000000a0: d2c9 3fbc 8f19 733c df83 2ebc 8aa7 5c3c
000000b0: f201 343b 04fd 0fbd 5f29 573c 4ace b3bc
000000c0: c8b1 d2bc 89bb 603c d174 8dbc bca9 773c
000000d0: 1158 dfbc 72d3 39bd b452 0cbc c1bd 393d
000000e0: dad0 b0bb 5a0f f3bd e4d3 12bd 8634 593c
000000f0: 95c4 d9bb 009d c9bc 9025 543c d903 e43b
00000100: 21e3 683d 497c b13d 4392 813d 1328 0d3d
00000110: 42d6 bbba daa9 a13c e3c0 c43d 3d19 de3c
00000120: 0519 eebc 8976 ec3b f1e8 9bbc 08cd 193b
00000130: b7c9 3fbb c640 463d 9e5d 4f3a b44f f23c
00000140: 8f23 033d a77f 2c3d 2097 74bc 7cba 1a3d
00000150: a53d 3bbc 45b9 cb3c c0d5 de3c e024 553d
00000160: bcab abbb 813c dcbc 223d 643c a8ef 853d
00000170: 78e4 2bbc 3f62 893c 945f 423b 830d 633b
00000180: 08b5 cbbc 9b1f 8bbb 8ffd b73c 0b3c ef3c
00000190: c03e b7bc 2a7d 00bd f216 a63c bc3a 13bb
000001a0: 99ad 9cbc ab51 963a 6a7e 743b 9bdf aebc
000001b0: 798d 1abd 0f87 1b3c 472a 9fbc 928a 423d
000001c0: 10ca 08bc 1141 2dbd bc7d 4d3a 242e 54bc
000001d0: c2dc 66bc 951d 6bbd 0f38 acbc cb63 af3c
000001e0: df0d fd3c c480 edbb 5a89 a6b9 09bf 9a3a
000001f0: d27a adbb 2e2f 0bbc 7408 44bd ec63 81bc
00000200: f1d8 f63c 9313 293d 9931 493c 624f 563c
00000210: 07d0 60bb 1880 043d ccc9 e9bc cab0 133d
00000220: a71c ed3c f7af 843d 913c 3d3d 2e3f 833c
00000230: 7ef7 a8bc d2a5 a0ba c117 b839 46a3 05bc
00000240: 0fac 14bb acf8 a2bc 0ea4 81bc 3dd4 56bd
00000250: 1c08 d3bb 88a9 28bd 173e 37bd b849 37bc
00000260: 4553 fa3c 7d78 08bd 40cf 42bd bcec 8cbb
00000270: 0092 15bd becf 1cbd f94b da3c 9618 cd3c
00000280: cfce b83c 7a1e e83b 00b8 88bc 524b aebc
00000290: 2f66 243d 94c7 89bb fc0c 403c 7076 f23b
000002a0: 59d2 4d3b 6ba3 103d e048 80bb 3960 743c
000002b0: 72af 05bc d0d0 353c 1bbb 823c 5af6 e0bc
000002c0: 65f3 f7bc 78db 2d3d c7b2 2e3d 1c0d 46bc
000002d0: 5602 933c dfe4 86b9 ec19 e5bc a9f7 153d
000002e0: 5942 1a3d 67d6 f0bb 26c8 053d 850a ad3d
000002f0: ba8e 423d 07aa 02bd 7985 433d 7728 1e3c
00000300: 1cd2 a73c 7513 42bd a35c 5abc 4b34 933c
00000310: 27fb 84bc c9ce aabd 4cee f0bb 1feb 00bd
00000320: 512e 9bbb a8ff 79bd c5a1 5c3d debf ac3c
00000330: 28a5 cbbc 823a fdbc a8bb 993c 6915 1a3d
00000340: ffe5 61bb 9abc d4bc 0150 b0bc b779 9a3c
00000350: 9c9b 99bc 12ba 0c3c 34a0 e8bc 9af5 13bd
00000360: 0b1a 24bd 6a63 9ebc 97b7 a1bb 4e21 db3b
00000370: 446c 8b3c 1000 c5bc 2f12 50bb e36f 28bd
00000380: 6399 753c d7b0 bfbc a1bb 763c 95ac 8bbc
00000390: 0a5b 7cbc 77ea a93b e22e abbc b87c a8bb
000003a0: 24d0 313d e9ae 65bc 78f9 cebc dcc2 9ebc
000003b0: 08de 29bd 6d2a f93c f5b8 0cbd f046 c6bc
000003c0: ee6c 14bc 5afc 0cb6 4edb 29bd 0445 b4bc
000003d0: 63b4 f33c bc37 e83c ea26 073d c0f0 73bd
000003e0: a299 21bb 2140 8a3d 9b26 fa3c 3347 243d
000003f0: 94e5 aebc 1a1d c6ba d094 c6bc 1471 92bc

sequential.13.bias f4 [64]
0.026019115 -0.0019173671 -0.0231257 -0.0003527656 -0.025074637 0.023924246 -0.00010715357 -0.027256325
-0.0028658086 0.019337345 -0.02064159 0.0039225547 0.010371701 0.03038236 0.02195229 0.034481145
-0.019267354 0.021957181 0.017197963 0.000323101 -0.016963156 -0.030190736 0.017692748 0.009776349
0.018287392 0.0043838257 0.02445319 -0.008721733 0.03263027 0.021631544 -0.018909229 0.02435919
-0.021924073 0.0096327895 -0.02905869 0.01721892 0.025261624 0.025646122 0.02712833 0.006217228
0.03310679 -0.025208808 0.023715334 -0.019904386 0.012734747 -0.0031591288 -0.016516704 -0.00936414
-0.018025186 -0.018518003 -0.00897966 0.004122079 0.012105502 -0.0052684764 -0.018838434 0.024520734
-0.0038270103 0.031437647 0.017690504 -0.011060488 -0.016646931 -0.0032868693 0.025290431 -0.023555938
00000000: 0a26 d53c 2a50 fbba 1c72 bdbc 66f3 b8b9
00000010: 5369 cdbc c8fc c33c a3b7 e0b8 a848 dfbc
00000020: 4ad0 3bbb 5a69 9e3c 8d18 a9bc c688 803b
00000030: 11ee 293c 6de4 f83c 4ad5 b33c 1a3c 0d3d
00000040: 92d6 9dbc 8cdf b33c bee2 8c3c e265 a939
00000050: 51f6 8abc 9052 f7bc 62f0 903c fb2c 203c
00000060: 71cf 953c 32a6 8f3b 0e52 c83c 99e5 0ebc
00000070: 51a7 053d a334 b13c 87e7 9abc ed8c c73c
00000080: 1d9a b3bc d9d2 1d3c 7d0c eebc b10e 8d3c
00000090: 77f1 ce3c d117 d23c 3b3c de3c e3b9 cb3b
000000a0: fc9a 073d b482 cebc a946 c23c 860e a3bc
000000b0: 66a5 503c 6309 4fbb 0a4e 87bc 0d6c 19bc
000000c0: 8ea9 93bc 11b3 97bc 6d1f 13bc 8112 873b
000000d0: 2856 463c 2fa3 acbb 0f53 9abc b5df c83c
000000e0: 94ce 7abb c3c4 003d adeb 903c 0d37 35bc
000000f0: 255f 88bc 8468 57bb e12d cf3c 62f8 c0bc

sequential.14.weight f4 [10, 64]
-0.17113149 0.5461151 0.45113125 0.15734446 0.32102183 0.4186669 -0.28981873 0.0014313859
-0.13268606 -0.18865038 0.294662 0.53918123 -0.28414303 0.29705068 -0.414407 -0.13427038
-0.2840586 -0.112944975 0.010736558 0.11641921 0.08572872 -0.04310578 -0.37287065 0.022720197
0.13317455 0.26933587 0.2154993 -0.15755083 0.12293818 -0.08245986 0.37242642 0.07085563
-0.2453723 0.27149948 0.18409052 0.15353258 -0.006669006 0.034468323 0.10500585 -0.2666356
0.115231834 0.21636504 -0.4768879 0.1966325 0.12929821 -0.3689659 -0.013625398 -0.014078104
-0.15896401 0.2868697 -0.13525726 -0.18976434 0.23805524 -0.108492345 0.059771683 0.15175627
0.38865206 -0.14672004 -0.33806965 0.21252343 0.34321174 0.22391352 -0.14026013 -0.24884218
-0.2375515 0.04198311 -0.10613584 -0.07476048 0.049004856 -0.028349385 -0.030926371 -0.16612622
-0.4064646 0.037713412 -0.2963277 0.39464122 -0.24424906 -0.11199974 -0.07242086 -0.24427915
0.06777895 0.2470743 0.2224058 -0.2749303 -0.21749456 0.058734834 0.28239688 -0.25438553
-0.3374161 -0.24829863 -0.14871679 -0.15812138 -0.27006707 -0.43566447 -0.17813665 0.24285956
0.018205985 -0.3054269 0.054967664 -0.18694563 0.32907242 0.21618259 -0.27334338 -0.36108673
-0.21332179 0.40044257 0.27796975 -0.023649137 0.36959007 -0.06040339 -0.18847011 0.33476952
0.020464031 -0.06934301 0.28079563 -0.29397735 -0.13932689 -0.2188651 0.070163384 -0.2750096
-0.32221824 0.220873 0.2717406 0.24678111 0.2477912 0.05328808 0.03080436 0.2781023
0.1859057 0.20341036 0.067461655 0.24902146 -0.22654513 -0.2248998 0.028807813 0.2833744
0.018653091 0.12608431 0.53213644 0.41946918 -0.05710167 0.060968257 -0.10150522 -0.40020844
0.29459494 0.28194758 -0.3099898 0.20635407 0.40716746 -0.22545654 0.41321287 -0.047952015
-0.46690696 -0.09748794 0.036366854 -0.028850494 0.1732291 0.028650489 -0.06977507 -0.45542708
0.40865874 0.28763703 -0.17444868 0.37470055 -0.478071 0.15103976 0.024627738 0.29837286
0.32033172 -0.17944257 -0.09503324 0.3600376 0.20794915 0.36669648 -0.39085236 -0.07621789
0.52378386 0.07437643 -0.05609804 -0.32551226 -0.5683009 0.054897036 0.02241682 -0.2553021
0.5952008 0.16437326 0.20056868 -0.29599017 -0.12072836 -0.08617098 -0.46343794 0.13326454
-0.3344213 0.4180375 -0.41840872 0.014045125 -0.49818888 0.19388777 0.17099951 0.17637739
0.21493274 0.22058673 0.21573515 -0.5485033 0.031114444 0.06926123 0.31518948 -0.0047885044
0.024677949 -0.26079828 -0.117897786 -0.29404378 0.09221344 -0.336816 -0.20062587 0.56859577
0.2564414 0.17873251 0.19346277 0.44378975 -0.2385895 0.2477925 -0.17129068 0.23338218
-0.13010885 -0.2385973 0.025586791 0.15504538 0.055363383 -0.36587057 0.09975945 -0.3269758
-0.13016693 -0.157257 0.26100165 -0.12749036 -0.37220055 -0.26337573 0.05193904 0.4824077
0.0029950521 0.24123685 0.27991873 -0.14651862 0.22087054 -0.018556464 0.061716914 0.105427876
0.059548207 -0.3504333 -0.3928871 -0.39978248 -0.11023699 0.42858815 0.13639359 0.1338809
00000000: 183d 2fbe 33ce 0b3f adfa e63e e81e 213e
00000010: f95c a43e 825b d63e 1f63 94be 579d bb3a
00000020: dbde 07be 912d 41be f0dd 963e c807 0a3f
00000030: 327b 91be 0717 983e 282d d4be 2d7e 09be
00000040: 2170 91be b24f e7bd 63e8 2f3c 326d ee3d
00000050: 8a92 af3d b08f 30bd e7e8 bebe b51f ba3c
00000060: e95e 083e 64e6 893e d9ab 5c3e 0155 21be
00000070: 03c7 fb3d b7e0 a8bd adae be3e c21c 913d
00000080: e042 7bbe fb01 8b3e 3a82 3c3e a537 1d3e
00000090: ad87 dabb a82e 0d3d 4f0d d73d 7684 88be
000000a0: abfe eb3d cc8e 5d3e a72a f4be 085a 493e
000000b0: c066 043e 19e9 bcbe 103d 5fbc d9a7 66bc
000000c0: 76c7 22be 96e0 923e e180 0abe 9551 42be
000000d0: c1c4 733e 3c31 debd 27d3 743d ff65 1b3e
000000e0: 67fd c63e c73d 16be 7717 adbe be9f 593e
000000f0: 73b9 af3e 9649 653e 5aa0 0fbe 7cd0 7ebe
00000100: b340 73be 7bf6 2b3d bf5d d9bd 061c 99bd
00000110: 51b9 483d f83c e8bc 4d59 fdbc fe1c 2abe
00000120: 211c d0be 6179 1a3d 44b8 97be 6a0e ca3e
00000130: 6d1c 7abe 1f60 e5bd 6351 94bd 5024 7abe
00000140: b1cf 8a3d 0c01 7d3e 59be 633e aac3 8cbe
00000150: e5b6 5ebe f093 703d 5396 903e d23e 82be
00000160: cec1 acbe ff41 7ebe 3749 18be 92ea 21be
00000170: 3b46 8abe 6a0f dfbe 7469 36be 2db0 783e
00000180: b824 953c ea60 9cbe c625 613d ad6e 3fbe
00000190: 2e7c a83e f85e 5d3e aaf3 8bbe 5ce0 b8be
000001a0: 0771 5abe cf06 cd3e 0d52 8e3e d6bb c1bc
000001b0: e93a bd3e 8c69 77bd 4ffe 40be e966 ab3e
000001c0: 2fa4 a73c b503 8ebd 72c4 8f3e 3384 96be
000001d0: b5ab 0ebe 2c1e 60be d2b1 8f3d 0fce 8cbe
000001e0: caf9 a4be 882c 623e 9521 8b3e 30b4 7c3e
000001f0: fabc 7d3e 9a44 5a3d 6d59 fc3c 6d63 8e3e
00000200: 105e 3e3e ce4a 503e 5629 8a3d 7bff 7e3e
00000210: 72fb 67be 224c 66be 5dfe eb3c 7316 913e
00000220: 5ece 983c 3f1c 013e 183a 083f aac4 d63e
00000230: 71e3 69bd dab9 793d f8e1 cfbd 1fe8 ccbe
00000240: 26d5 963e 6f5b 903e fcb6 9ebe 7b4e 533e
00000250: 4178 d03e 14de 66be a390 d33e 5569 44bd
00000260: 6e0e efbe c2a7 c7bd 69f5 143d df57 ecbc
00000270: f862 313e 6eb4 ea3c 3be6 8ebd bd2d e9be
00000280: b83b d13e 2945 933e ada2 32be c0d8 bf3e
00000290: b9c5 f4be 2baa 1a3e 1cc0 c93c 54c4 983e
000002a0: 8502 a43e cbbf 37be caa0 c2bd d956 b83e
000002b0: 9ff0 543e a4bf bb3e cd1d c8be 2018 9cbd
000002c0: b316 063f ab52 983d 0fc7 65bd 8ba9 a6be
000002d0: 2b7c 11bf b7db 603d 7ba3 b73c f5b6 82be
000002e0: 145f 183f 7751 283e e061 4d3e 068c 97be
000002f0: 6e40 f7bd 697a b0bd bd47 edbe 8076 083e
00000300: 4539 abbe 0309 d63e ab39 d6be 861d 663c
00000310: 9d12 ffbe 848a 463e 7f1a 2f3e 469c 343e
00000320: 5417 5c3e 7de1 613e ade9 5c3e b66a 0cbf
00000330: b8e3 fe3c d5d8 8d3d 8460 a13e e3e8 9cbb
00000340: 6929 ca3c 5a87 85be 6574 f1bd e88c 96be
00000350: 66da bc3d 2673 acbe de70 4dbe 7e8f 113f
00000360: 4a4c 833e a805 373e 1b1b 463e 6938 e33e
00000370: ce50 74be 51bd 7d3e d366 2fbe bdfb 6e3e
00000380: 413b 05be da52 74be 649b d13c 37c4 1e3e
00000390: b7c4 623d 6353 bbbe af4e cc3d 5f69 a7be
000003a0: 7b4a 05be fb07 21be 02a2 853e d58c 02be
000003b0: 1291 bebe 2fd9 86be 08be 543d 24fe f63e
000003c0: a348 443b cb06 773e 8251 8f3e fa08 16be
000003d0: e32b 623e ba03 98bc e0ca 7c3d 92ea d73d
000003e0: d2e8 733d fe6b b3be 7f28 c9be 4ab0 ccbe
000003f0: eec3 e1bd e86f db3e c3aa 0b3e 1318 093e

sequential.14.bias f4 [10]
0.09277836 -0.0011020196 -0.0012131248 -0.053472552 -0.08939504 -0.09752144 -0.099256776 0.0048126653
0.043499134 0.09227251
00000000: 9502 be3d a471 90ba b701 9fba 0906 5bbd
00000010: bf14 b7bd 52b9 c7bd 2347 cbbd 90b3 9d3b
00000020: 262c 323d 5ff9 bc3d
