learning_pytorch_shizhan/trained_save/NET_100_local.pth (torch_old, 588145 bytes, 22 tensors)

sequential.0.weight f4 [32, 3, 5, 5]
0.043122757 0.08472128 0.08392088 0.029039908 -0.03038726 -0.0063706352 0.18414961 -0.025261661
-0.084864534 -0.10517232 0.017009623 0.01030719 0.093432166 0.054843944 -0.03202936 -0.029868294
-0.010190652 -0.098569505 0.12836154 0.07486457 -0.114392065 -0.14608566 -0.022183979 -0.093688756
0.098603375 -0.050444428 0.028320678 0.032465626 -0.1126735 0.0032901189 -0.092378244 0.08441668
0.017172303 0.11073101 0.03869392 0.10751504 -0.12318176 0.0056922063 0.20909654 -0.09504512
0.04117894 -0.117630176 -0.09254892 0.09528879 0.0050906735 0.041070815 -0.15603758 -0.033249274
0.17041631 -0.036404192 -0.09942728 0.13281237 -0.0860699 0.09534479 -0.05309334 -0.14208283
0.007258447 -0.052093603 0.05971948 0.14763607 -0.16132578 -0.1179011 -0.03941468 0.08505976
0.0043293713 -0.21993369 -0.053688288 0.07371837 0.2152103 0.09582715 -0.18084861 -0.24814272
-0.09740122 0.24975413 0.16457424 0.019054195 -0.05310061 0.058415912 0.16790636 0.044638045
-0.2078345 -0.11734029 -0.03964371 0.02632875 0.16810043 -0.019188652 -0.1916312 -0.2571383
-0.16274899 -0.008245021 0.26096427 0.0047832024 0.025433555 -0.01495236 0.12658216 0.0946687
0.13925923 0.005984653 -0.098174065 -0.115966 -0.079423636 0.14318244 0.19255397 0.2493465
-0.12189628 -0.115772694 -0.06567758 -0.09398077 0.06690147 0.28088316 -0.0036414734 -0.2520537
-0.13021033 -0.16600609 0.10830585 0.24826193 0.06399463 -0.13716999 -0.12206511 0.005989879
0.025373647 0.011885291 0.047207396 0.052510053 -0.1660457 0.073114805 0.25055796 0.05466601
0.15601078 -0.0127096325 -0.18183577 -0.12889221 0.11014724 0.22904629 0.2877172 -0.1724944
-0.30275434 -0.08569143 -0.1677857 0.01785282 0.07173326 -0.06732849 -0.1189769 0.027646111
0.016617294 0.011251926 0.0920072 -0.056547116 -0.19099303 -0.028633235 -0.06938448 -0.06783324
-0.03221203 0.016642919 -0.024525858 0.00948973 -0.122066505 0.034658585 0.026578616 -0.0987384
0.035696436 -0.0040547107 0.06689995 -0.086565 -0.033997115 0.097683206 -0.08573523 -0.038776003
-0.113910094 -0.07053087 0.07407545 -0.08933114 -0.061120827 -0.028305497 -0.11639817 -0.12754126
0.10799894 0.042283967 0.031698167 -0.0012886854 -0.0415905 -0.118412554 0.14883302 0.124536484
0.12505192 0.18333457 -0.10072174 -0.11584468 -0.09815834 -0.082127236 -0.057090003 0.053835467
-0.05488609 0.06863606 -0.048381127 -0.083305135 0.012114601 -0.009222767 -0.10108478 0.061067585
-0.12948275 0.06246585 -0.09912456 0.06704109 -0.058172137 0.04294679 -0.054722115 0.089027286
-0.10182617 -0.0979081 0.15413731 0.067756504 -0.077154465 -0.06258558 -0.115761556 0.025583334
0.0080657555 -0.008789843 -0.07949993 -0.07134995 -0.05036617 -0.11195633 -0.083997205 -0.06303669
-0.10047328 0.0005158417 0.021243714 0.07194484 -0.09747268 -0.074151345 -0.080414906 0.096829765
-0.012180362 -0.068355106 0.13245471 0.0064465925 -0.07736169 -0.087618485 0.012952895 0.092448376
-0.08975696 0.06707231 -0.024699423 -0.10110894 -0.10662728 0.041179977 -0.10724613 -0.041469816
0.115944736 -0.08652827 0.07000589 -0.038351923 0.028766317 0.051125485 -0.054093722 0.055045523
00000000: 7da1 303d 5a82 ad3d b6de ab3d 1ae5 ed3c
00000010: b4ee f8bc c3c0 d0bb b791 3c3e 8bf1 cebc
00000020: 75cd adbd 9664 d7bd c457 8b3c 7ddf 283c
00000030: 5d59 bf3d 0ba4 603d 3831 03bd 5aae f4bc
00000040: b1f6 26bc cfde c9bd 3571 033e 9852 993d
00000050: 6346 eabd 7b97 15be 2dbb b5bc e4df bfbd
00000060: 91f0 c93d d19e 4ebd c400 e83c adfa 043d
00000070: 5dc1 e6bd 099f 573b ce30 bdbd a7e2 ac3d
00000080: eeac 8c3c f1c6 e23d 847d 1e3d d830 dc3d
00000090: b846 fcbd b085 ba3b 671d 563e 04a7 c2bd
000000a0: 40ab 283d 17e8 f0bd 4a8a bdbd c526 c33d
000000b0: aacf a63b df39 283d 51c8 1fbe 6430 08bd
000000c0: 9d81 2e3e 901c 15bd 88a0 cbbd f7ff 073e
000000d0: 6a45 b0bd 2144 c33d 6778 59bd 297e 11be
000000e0: 44d8 ed3b 1a60 55bd 6a9c 743d e92d 173e
000000f0: 9632 25be 2276 f1bd 4a71 21bd d033 ae3d
00000100: 66dd 8d3b 4c36 61be 40e8 5bbd a8f9 963d
00000110: 1760 5c3e 0641 c43d 6130 39be 2019 7ebe
00000120: 4a7a c7bd 8cbf 7f3e 2686 283e 8b17 9c3c
00000130: 0680 59bd 8645 6f3d a5ef 2b3e 62d6 363d
00000140: 91d2 54be 1b50 f0bd 7161 22bd 64af d73c
00000150: 8522 2c3e 8531 9dbc f83a 44be a2a7 83be
00000160: aca7 26be 2016 07bc 1c9d 853e 69bc 9c3b
00000170: 085a d03c befa 74bc c19e 013e aae1 c13d
00000180: f999 0e3e e81a c43b 7c0f c9bd 957f edbd
00000190: dca8 a2bd 6b9e 123e de2c 453e b054 7f3e
000001a0: c2a4 f9bd 3c1a edbd f881 86bd fd78 c0bd
000001b0: a303 893d ebcf 8f3e c9a5 6ebb 2f0d 81be
000001c0: db55 05be 80fd 29be 75cf dd3d 6038 7e3e
000001d0: 9e0f 833d 4a76 0cbe 46fd f9bd bf46 c43b
000001e0: 65dc cf3c 86ba 423c 8b5c 413d c814 573d
000001f0: e207 2abe 37bd 953d 2249 803e 77e9 5f3d
00000200: 4ac1 1f3e 103c 50bc 2833 3abe 52fc 03be
00000210: e094 e13d 1c8b 6a3e ab4f 933e 5fa2 30be
00000220: 9e02 9bbe fd7e afbd 04d0 2bbe 1440 923c
00000230: e3e8 923d 85e3 89bd 29aa f3bd 197a e23c
00000240: fe20 883c 005a 383c 456e bc3d f39d 67bd
00000250: ad93 43be 3f90 eabc 7319 8ebd 27ec 8abd
00000260: c3f0 03bd bb56 883c 74ea c8bc d07a 1b3c
00000270: 01fe f9bd 29f6 0d3d 66bb d93c 5c37 cabd
00000280: 6d36 123d 61dd 84bb d702 893d fe48 b1bd
00000290: 8f40 0bbd 220e c83d f495 afbd 96d3 1ebd
000002a0: b249 e9bd 7d72 90bd dfb4 973d 3ff3 b6bd
000002b0: d559 7abd eee0 e7bc 2a62 eebd 2d9a 02be
000002c0: 8c2e dd3d f431 2d3d f0d5 013d 1be9 a8ba
000002d0: cd5a 2abd 4882 f2bd af67 183e fc0c ff3d
000002e0: 9c0d 003e 0fbc 3b3e 3347 cebd fa3f edbd
000002f0: 3d07 c9bd 5332 a8bd 35d7 69bd 9482 5c3d
00000300: 3dd0 60bd 1091 8c3d 4a2b 46bd e29b aabd
00000310: 527c 463c 171b 17bc 8a05 cfbd 0122 7a3d
00000320: 2097 04be 31dc 7f3d d101 cbbd d74c 893d
00000330: e845 6ebd f9e8 2f3d 4c24 60bd f053 b63d
00000340: 3d8a d0bd 0b84 c8bd 2cd6 1d3e ecc3 8a3d
00000350: 2903 9ebd de2c 80bd 6514 edbd 2494 d13c
00000360: 3b26 043c 4603 10bc dcd0 a2bd ec1f 92bd
00000370: c24c 4ebd 5c49 e5bd ba06 acbd 6119 81bd
00000380: efc4 cdbd 8d39 073a 4c07 ae3c d157 933d
00000390: c29f c7bd a9dc 97bd 92b0 a4bd af4e c63d
000003a0: 2490 47bc c3fd 8bbd 35a2 073e f03d d33b
000003b0: ce6f 9ebd 5271 b3bd 6138 543c 9355 bd3d
000003c0: 7fd2 b7bd 355d 893d 7256 cabc 3412 cfbd
000003d0: 675f dabd 56ac 283d dca3 dbbd 41dc 29bd
000003e0: 6f74 ed3d bc35 b1bd 405f 8f3d e816 1dbd
000003f0: 57a7 eb3c f568 513d 6191 5dbd 6a77 613d

sequential.0.bias f4 [32]
0.026207404 -0.0025706522 -0.015394459 -0.18593535 -0.0422762 -0.018897008 0.060491916 0.07369052
0.0070726895 0.17774591 0.069773436 -0.0059411437 0.13407362 -0.021981403 0.07277807 -0.1485393
0.053114485 0.11138764 0.009645739 0.11980411 0.0040896405 -0.0026757447 0.031214193 -0.13497025
0.029067153 0.05969946 0.11545237 -0.12868606 0.18780607 0.20184444 0.15516059 0.021872165
00000000: e9b0 d63c 6378 28bb 0a39 7cbc d665 3ebe
00000010: cf29 2dbd e6cd 9abc 5fc6 773d 0eeb 963d
00000020: 05c2 e73b 0603 363e 60e5 8e3d edad c2bb
00000030: 984a 093e 5812 b4bc ab0c 953d b01a 18be
00000040: 938e 593d 341f e43d 2909 1e3c db5b f53d
00000050: 6402 863b 8c5b 2fbb e8b4 ff3c a435 0abe
00000060: 3d1e ee3c 6c87 743d 4b72 ec3d 47c6 03be
00000070: 3c50 403e 4fb0 4e3e 6be2 1e3e 412d b33c

sequential.2.weight f4 [32]
1.005374 1.017493 1.0086526 0.96678466 0.9831453 1.0028323 1.0624266 0.9957664
1.0354534 1.0346417 0.9104516 1.026406 0.9950608 0.9898269 1.0484099 0.94353133
0.9505448 0.90490764 0.9461394 0.9326744 1.1047426 1.0045102 1.0541276 1.0004876
0.9795838 0.9185592 1.0044656 0.96797425 0.9846681 1.031162 1.0379472 1.0370377
00000000: 18b0 803f 363d 823f 871b 813f 337f 773f
00000010: 69af 7b3f cf5c 803f 98fd 873f 8cea 7e3f
00000020: bd89 843f 246f 843f 5b13 693f 4661 833f
00000030: 4ebc 7e3f 4c65 7d3f 4c32 863f 458b 713f
00000040: e756 733f 07a8 673f 3136 723f c0c3 6e3f
00000050: 3568 8d3f ca93 803f a7ed 863f fa0f 803f
00000060: 01c6 7a3f b226 6b3f 5492 803f 29cd 773f
00000070: 3513 7c3f 1efd 833f 74db 843f a7bd 843f

sequential.2.bias f4 [32]
0.011945115 0.050397296 -0.025429904 0.0072105927 0.07333183 0.12541687 0.015996765 0.059055887
-0.00670711 0.026638232 0.09386596 0.09467599 0.08326083 0.03226911 0.061841905 0.061484817
0.14419647 0.12308168 -0.008021703 0.09289682 0.108465746 -0.025748858 0.01280745 -0.030316273
0.0686862 0.04005798 0.020275624 0.10746786 0.12929355 0.17904639 0.02891284 0.0772092
00000000: 72b5 433c 656d 4e3d 6052 d0bc d646 ec3b
00000010: 002f 963d 486d 003e a60b 833c 96e4 713d
00000020: 51c7 dbbb 6c38 da3c cc3c c03d 7ce5 c13d
00000030: a784 aa3d 9d2c 043d f04d 7d3d 81d7 7b3d
00000040: 3da8 133e 3f12 fc3d 766d 03bc b040 be3d
00000050: 4a23 de3d 45ef d2bc 57d6 513c d559 f8bc
00000060: 5aab 8c3d d613 243d 1119 a63c 1c18 dc3d
00000070: 8765 043e f057 373e 9fda ec3c db1f 9e3d

sequential.2.running_mean f4 [32]
0.10679993 0.052647892 1.9357714e-05 0.0008292613 0.010443527 0.051979218 0.05842956 0.047705073
0.05995315 0.15848215 0.17834844 0.10999759 0.0013316033 6.48815e-05 0.06993433 0.2841575
0.14116713 0.0036992836 0.15610401 0.038299315 0.05574149 0.09387788 0.051794797 7.584602e-07
0.094155736 0.17029335 0.11684675 0.00357836 0.0156208 0.021320438 0.116523676 0.110233694
00000000: ecb9 da3d 51a5 573d 6062 a237 c962 593a
00000010: 541b 2b3c 29e8 543d d653 6f3d 6566 433d
00000020: 6f91 753d 2549 223e f9a0 363e 6b46 e13d
00000030: 3189 ae3a fd10 8838 bb39 8f3d 187d 913e
00000040: 1e8e 103e ae6f 723b bbd9 1f3e bedf 1c3d
00000050: 3051 643d 0c43 c03d c826 543d fd98 4b35
00000060: b9d4 c03d 6161 2e3e 594d ef3d eb82 6a3b
00000070: 62ee 7f3c 33a8 ae3c f7a3 ee3d 34c2 e13d

sequential.2.running_var f4 [32]
0.03232496 0.01789777 1.3745794e-06 0.00019103225 0.0021827295 0.018669875 0.016430167 0.012299029
0.020236127 0.017175745 0.038071863 0.05747837 0.00014109559 1.0453107e-05 0.011184975 0.047389846
0.0321103 0.0005295403 0.01683141 0.007669017 0.022447243 0.016782232 0.0133079095 3.3717832e-08
0.022832286 0.01674387 0.019937413 0.0011328936 0.0033269832 0.0047966572 0.024308695 0.05216464
00000000: 2d67 043d 589e 923c 307e b835 d44f 4839
00000010: 200c 0f3b 91f1 983c 8f98 863c de81 493c
00000020: 3cc6 a53c 26b4 8c3c 3ef1 1b3d 706e 6b3d
00000030: 0ff3 1339 c15f 2f37 2f41 373c db1b 423d
00000040: 1786 033d d9d0 0a3a 06e2 893c 614c fb3b
00000050: 48e3 b73c e47a 893c 6b09 5a3c 26d1 1033
00000060: c60a bb3c 712a 893c c953 a33c 9a7d 943a
00000070: 8409 5a3b 472d 9d3b 0723 c73c 97aa 553d

sequential.4.weight f4 [32, 32, 5, 5]
0.0086559905 0.029592033 0.069230326 0.015864683 0.003046885 -0.046152864 -0.009290206 0.056372833
-0.0032900693 -0.035774887 -0.008440185 -0.021234171 0.012402617 -0.036301848 -0.013365873 0.04478299
-0.016731398 0.0634927 -0.04931727 -0.027274782 -0.03488277 -0.0030618294 0.030689698 -0.04566503
-0.070081495 -0.052640297 -0.0049509215 0.007850945 0.009892228 -0.035820965 0.0036177074 -0.012238669
-0.02309684 0.117229454 0.012193591 -0.030990764 0.032257535 0.039298393 0.050103832 -0.029591944
0.0012853123 0.0074091773 0.07628341 -0.05412964 -0.12751885 0.1323094 0.15640146 0.0041729906
-0.02889926 0.041175652 0.022396615 0.026404567 -0.00542733 -0.0045586745 -0.02565205 -0.027517281
0.064871654 0.036483742 0.010034669 0.013300567 -0.026049567 -0.019133694 0.016851265 -0.029100701
0.015885772 -0.006203984 0.01768014 -0.03036226 -0.039556656 -0.00042020422 -0.00075513596 0.01825156
0.024159018 -0.006551979 -0.01770067 0.04349846 0.051008455 -0.026412977 0.035138693 0.0016896706
0.030943548 0.01472252 -0.022723133 -0.059861593 -0.03937443 -0.03796827 -0.048071213 -0.048320152
0.030265486 0.061636303 0.04348152 0.01942637 -0.0111116655 -0.022592869 0.036875196 0.021897474
0.015834691 0.045868054 -0.0044834847 -0.03669293 0.005960338 0.040324643 0.020382289 0.031778675
-0.0059088827 0.049203914 -0.07334821 -0.01281373 -0.029883835 -0.049360987 -0.015286602 -0.0052776407
0.012010691 -0.008810457 0.10315015 -0.022988364 -0.055792004 0.0048640603 -0.0035926178 0.04658097
-0.028899388 -0.031561434 0.015376492 0.036856774 -0.023194838 -0.021747557 0.10004023 -0.0086239455
0.009445172 0.0017896201 0.01985171 0.008891438 0.026562894 0.022742772 -0.06285669 -0.031176694
-0.019587282 0.017341528 -0.024104986 -0.016750127 -0.029108934 0.030809553 -0.011321748 -0.0471811
-0.04788652 -0.02771559 0.017203104 -0.035284664 -0.07929429 -0.10679373 0.03812572 -0.0029584877
0.020673169 0.10254224 -0.019146696 -0.0045807213 -0.0722166 0.05538151 0.041108366 0.043912046
-0.054963905 0.0079181325 -0.018760657 -0.057561476 -0.024548851 0.022168316 0.009635605 -0.04701268
-0.03660409 -0.022799026 -0.01775046 0.025144694 -0.004433597 -0.007032683 -0.0020427604 -0.062193025
0.036471084 0.0011988805 -0.08217595 -0.0035773625 0.020290477 -0.029672856 -0.022657331 0.025372868
0.100929365 0.06652078 0.055938005 -0.070152864 0.052172456 0.08665096 -0.09018719 -0.010445284
0.0066377013 0.032877233 0.009267006 -0.019799503 -0.022562772 0.07648492 0.07800601 0.019329332
-0.059000615 -0.01780345 -0.076606035 -0.050786354 -0.036114328 0.045292262 -0.024838876 -0.0030765722
0.05090863 -0.058665134 0.06126176 -0.0017109533 -0.052120622 -0.06325053 -0.023953985 0.08157477
0.070844546 0.01302067 0.010859521 0.0759982 -0.04769955 -0.08533786 -0.07565106 -0.07961698
-7.9392084e-05 -0.0029600565 -0.026347283 0.012233289 0.03277407 -0.0082664415 -0.018104684 0.042312868
-0.033666246 0.037379697 -0.0025596067 -0.06343813 0.005482447 0.01503825 0.022147631 0.025123784
0.03598319 -0.016744787 0.05031603 0.070666246 -0.064293936 -0.029032981 0.020985879 0.019892193
-0.018022023 -0.084777005 -0.0004459735 -0.024859885 0.018979529 -0.02780957 -0.026162937 0.026044339
00000000: dbd1 0d3c fe6a f23c a1c8 8d3d a7f6 813c
00000010: 3fae 473b c90a 3dbd f335 18bc 33e7 663d
00000020: 349e 57bb b088 12bd b448 0abc 49f3 adbc
00000030: 5934 4b3c 3fb1 14bd 89fc 5abc 5e6e 373d
00000040: 4910 89bc 7608 823d e800 4abd 5d6f dfbc
00000050: 3ce1 0ebd f9a8 48bb f668 fb3c 410b 3bbd
00000060: e386 8fbd 5a9d 57bd 573b a2bb 40a1 003c
00000070: 0313 223c 01b9 12bd 0f17 6d3b b384 48bc
00000080: 9635 bdbc ff15 f03d a1c7 473c 58e0 fdbc
00000090: 7a20 043d 5af7 203d ad39 4d3d ce6a f2bc
000000a0: ed77 a83a afc8 f23b 7a3a 9c3d 0bb7 5dbd
000000b0: 4d94 02be 1e7c 073e b427 203e 95bd 883b
000000c0: 24be ecbc cda7 283d 1b79 b73c 644e d83c
000000d0: bed7 b1bb ef60 95bb 3f24 d2bc ec6b e1bc
000000e0: 6edb 843d fa6f 153d 7468 243c 9fea 593c
000000f0: e765 d5bc 44be 9cbc aa0b 8a3c 9864 eebc
00000100: e122 823c ca4a cbbb f1d5 903c 46ba f8bc
00000110: 2906 22bd db4e dcb9 51f4 45ba 4c84 953c
00000120: 22e9 c53c fcb1 d6bb ff00 91bc 712b 323d
00000130: 3eee 503d 0760 d8bc 97ed 0f3d f077 dd3a
00000140: 537d fd3c b936 713c dd25 babc 6e31 75bd
00000150: 1547 21bd 9e84 1bbd 52e6 44bd 5aeb 45bd
00000160: 53ef f73c 5976 7c3d ae19 323d 0d24 9f3c
00000170: b40d 36bc ae14 b9bc 720a 173d 5562 b33c
00000180: c1b7 813c 24e0 3b3d 32ea 92bb 534b 16bd
00000190: f04e c33b 742b 253d c2f8 a63c 5b2a 023d
000001a0: 4d9f c1bb 0b8a 493d 9637 96bd aef0 51bc
000001b0: f2ce f4bc bf2e 4abd a874 7abc 0ff0 acbb
000001c0: 7dc8 443c bc59 10bc 6340 d33d 1852 bcbc
000001d0: 2886 64bd b262 9f3b 2072 6bbb b0cb 3e3d
000001e0: 69be ecbc 9046 01bd afed 7b3c 21f7 163d
000001f0: 1a03 bebc ef27 b2bc e4e1 cc3d 734b 0dbc
00000200: ecbf 1a3c b091 ea3a 0ea0 a23c 65ad 113c
00000210: 6d9a d93c 0d4f ba3c 02bb 80bd 4466 ffbc
00000220: 8275 a0bc d20f 8e3c d277 c5bc 9037 89bc
00000230: dc75 eebc 5164 fc3c da7e 39bc f840 41bd
00000240: a824 44bd ce0b e3bc 86ed 8c3c a786 10bd
00000250: 0b65 a2bd acb6 dabd b729 1c3d 30e3 41bb
00000260: c75a a93c aa01 d23d 88d9 9cbc e019 96bb
00000270: 4ce6 93bd b9d7 623d 3f61 283d 1edd 333d
00000280: d521 61bd 0ebb 013c f3af 99bc 95c5 6bbd
00000290: ac1a c9bc 549a b53c a8de 1d3c 5e90 40bd
000002a0: 2cee 15bd 06c5 babc 6a69 91bc 3ffc cd3c
000002b0: b547 91bb 6c72 e6bb d5df 05bb 1dbe 7ebd
000002c0: b462 153d c123 9d3a dd4b a8bd 2f72 6abb
000002d0: 3738 a63c 7d14 f3bc de9b b9bc c3da cf3c
000002e0: 0eb4 ce3d 0c3c 883d 401f 653d 4eac 8fbd
000002f0: c9b2 553d 0f76 b13d 10b4 b8bd b222 2bbc
00000300: 1381 d93b 47aa 063d a4d4 173c 9132 a2bc
00000310: 90d5 b8bc 20a4 9c3d 9dc1 9f3d 8c58 9e3c
00000320: a1aa 71bd 8ad8 91bc a0e3 9cbd 5a05 50bd
00000330: 9eec 13bd 6184 393d e67a cbbc 51a0 49bb
00000340: 9185 503d da4a 70bd 9ced 7a3d 1142 e0ba
00000350: 6f7c 55bd 7e89 81bd 263b c4bc ac10 a73d
00000360: f216 913d a654 553c 22ec 313c f2a4 9b3d
00000370: 9a60 43bd 9ec5 aebd f1ee 9abd 3a0e a3bd
00000380: 4d7f a6b8 82fd 41bb 42d6 d7bc 226e 483c
00000390: 1a3e 063d f86f 07bc 4650 94bc 4250 2d3d
000003a0: 9ee5 09bd 741b 193d 13bf 27bb daeb 81bd
000003b0: 19a6 b33b fe62 763c f36e b53c 65d0 cd3c
000003c0: 1c63 133d 5d2c 89bc 2e18 4e3d 77b9 903d
000003d0: 8aac 83bd 93d6 edbc 94ea ab3c f4f4 a23c
000003e0: eca2 93bc 919f adbd 8dd1 e9b9 f5a6 cbbc
000003f0: f57a 9b3c e5d0 e3bc a853 d6bc f05a d53c

sequential.4.bias f4 [32]
-0.06999538 -0.030595815 -0.022992289 0.001855125 -0.10717277 0.02753864 -0.039820056 -0.060664233
-0.014357936 -0.106788255 -0.0011010803 -0.025250154 -0.06481461 -0.033013333 0.0046360116 -0.006400981
-0.032429073 -0.038127594 -0.013690226 0.044647094 -0.111248955 -0.0483002 -0.008340414 -0.009141667
-0.012810671 -0.059947547 -0.07533941 -0.062070634 -0.025893524 -0.11887589 0.014434456 -0.03710873
00000000: bd59 8fbd 13a4 fabc 535a bcbc aa27 f33a
00000010: 667d dbbd b798 e13c 5b1a 23bd 0f7b 78bd
00000020: 8c3d 6bbc cdb3 dabd 2052 90ba 69d9 cebc
00000030: 86bd 84bd fd38 07bd afe9 973b 52bf d1bb
00000040: 59d4 04bd ae2b 1cbd f84c 60bc dfdf 363d
00000050: 7ed6 e3bd 6ed6 45bd 3ba6 08bc eec6 15bc
00000060: d9e3 51bc 8f8b 75bd 8c4b 9abd c73d 7ebd
00000070: a81e d4bc 3475 f3bd 7f7e 6c3c 53ff 17bd

sequential.6.weight f4 [32]
0.98206556 1.0032076 1.0098532 0.9924035 1.0039742 0.9543308 0.94868135 1.0211259
1.0454468 0.9575805 1.0146872 1.000886 0.97359824 1.0269045 0.9938921 1.0058478
1.0187266 1.0097872 0.99555147 1.014345 1.0019989 1.0370191 0.961446 0.97397393
0.9675907 0.9776848 1.0315849 0.9551421 1.002253 1.0417835 1.0142298 1.011943
00000000: a668 7b3f 1b69 803f df42 813f 280e 7e3f
00000010: 3a82 803f 064f 743f c8dc 723f 41b4 823f
00000020: 33d1 853f ff23 753f 45e1 813f 081d 803f
00000030: bc3d 793f 9b71 833f b66f 7e3f 9fbf 803f
00000040: a265 823f b540 813f 76dc 7e3f 0fd6 813f
00000050: 8041 803f 0bbd 843f 5321 763f 5b56 793f
00000060: 06b4 773f 8d49 7a3f f90a 843f 3184 743f
00000070: d449 803f 2959 853f 48d2 813f 5987 813f

sequential.6.bias f4 [32]
-0.076815 -0.03244585 -0.04704931 -0.055681225 -0.07586748 -0.041638788 -0.09637486 -0.09135471
-0.0429171 -0.057138354 -0.08849048 -0.07477394 -0.07090983 -0.050186586 -0.032181796 -0.076972455
-0.07051727 -0.052052815 -0.05099507 -0.03976664 -0.06894503 -0.12579544 -0.08449531 -0.06818657
-0.051920433 -0.061934207 -0.08014008 -0.062061787 -0.048289873 -0.053709794 -0.09315797 -0.06144048
00000000: 2f51 9dbd f1e5 04bd c7b6 40bd ff11 64bd
00000010: 6960 9bbd 6f8d 2abd 2f60 c5bd 2e18 bbbd
00000020: d7c9 2fbd e809 6abd 7f3a b5bd 1423 99bd
00000030: 2c39 91bd 7390 4dbd 0fd1 03bd bca3 9dbd
00000040: 5c6b 90bd 5535 55bd 35e0 50bd 58e2 22bd
00000050: 0d33 8dbd 85d0 00be e10b adbd 67a5 8bbd
00000060: 85aa 54bd b9ae 7dbd 7b20 a4bd 8034 7ebd
00000070: 9acb 45bd cdfe 5bbd 9bc9 bebd 03a9 7bbd

sequential.6.running_mean f4 [32]
0.29948658 0.22857347 0.16477987 0.41918585 0.18021184 0.30468938 0.22399214 0.5020391
0.4315358 0.29666728 0.4235596 0.36551222 0.2530613 0.34666497 0.22146209 0.35505357
0.43355024 0.40292308 0.2711303 0.31612733 0.28122115 0.3314071 0.3019586 0.27917886
0.3886605 0.2070576 0.39765 0.26376268 0.16563809 0.44082534 0.30728567 0.2857558
00000000: 4e56 993e 2a0f 6a3e 0ebc 283e 879f d63e
00000010: 7489 383e 3f00 9c3e 325e 653e a285 003f
00000020: 43f2 dc3e c6e4 973e cedc d83e 6b24 bb3e
00000030: 4091 813e 127e b13e f5c6 623e 95c9 b53e
00000040: 4cfa dd3e ef4b ce3e 97d1 8a3e 71db a13e
00000050: 38fc 8f3e 31ae a93e 519a 9a3e 88f0 8e3e
00000060: 82fe c63e e806 543e c898 cb3e e70b 873e
00000070: 089d 293e dcb3 e13e 8c54 9d3e 964e 923e

sequential.6.running_var f4 [32]
0.3966918 0.36364397 0.22224504 0.548823 0.25531864 0.49555364 0.3231402 0.6933887
0.5817721 0.4367202 0.55604357 0.6375479 0.4802308 0.4041841 0.31916013 0.5144331
0.5730242 0.52834845 0.40830377 0.44492337 0.47196123 0.5529048 0.39844093 0.3472179
0.52942985 0.29026073 0.56846213 0.3323454 0.23719858 0.6843437 0.42260513 0.355881
00000000: 301b cb3e 8b2f ba3e 3494 633e aa7f 0c3f
00000010: 20b9 823e 35b9 fd3e a272 a53e ec81 313f
00000020: 04ef 143f ca99 df3e df58 0e3f 5736 233f
00000030: d0e0 f53e 38f1 ce3e f568 a33e e3b1 033f
00000040: b7b1 123f d841 073f 310d d13e ffcc e33e
00000050: e7a4 f13e 2b8b 0d3f 7300 cc3e 8bc6 b13e
00000060: b788 073f 0e9d 943e bc86 113f 2d29 aa3e
00000070: 2fe4 723e 2631 2f3f b35f d83e 0936 b63e

sequential.8.weight f4 [64, 32, 5, 5]
0.018637778 -0.0191557 -0.04203265 0.006597778 0.008135402 0.015969498 -0.016819617 -0.0030867322
0.026494913 0.040589683 -0.024580074 -0.0076385923 -0.017190903 -0.028250381 -0.06915639 -0.044112295
0.024234936 -0.09132461 0.029064853 0.0061817723 -0.053422958 -0.03944164 -0.01833496 -0.020094711
0.00097052276 0.04610172 0.019730687 -0.034069717 0.054709714 0.0043806825 0.009538066 -0.03575972
-0.063050345 -0.032402404 0.013268269 0.013577209 -0.0080126375 0.004413856 -0.035808567 -0.009679156
-0.020208783 -0.032844093 -0.02169559 0.0424983 -0.047273714 0.02292981 -0.009892496 0.008191984
-0.011666808 0.011244732 -0.014060734 0.011116177 -0.007774612 -0.0128529025 -0.079292044 0.056922223
-0.057638597 -0.06000209 -0.016577205 -0.04147034 -0.013883394 -0.062192976 -0.07304292 0.011925812
-0.019127978 0.071288474 0.094447315 -0.0092418 -0.00011583663 0.022031829 -0.011483798 0.0070631877
0.0017188617 -0.015130322 -0.030705359 0.0025276567 0.005403568 0.027051274 0.026333505 0.0019155281
0.024922846 -0.009312547 0.003963853 -0.015808517 -0.028879046 0.026736 0.038718 -0.027488945
-0.027472418 0.027392028 0.029905908 0.030198304 -0.014868842 0.019353876 -0.006411887 0.008408219
-0.061391074 0.036952376 -0.042229485 0.030109383 0.040574726 0.021109533 0.006966286 -0.020826897
0.0054280083 0.06409996 0.035208758 -0.02643074 -0.02489801 -0.10288256 -0.0062141526 -0.031767156
0.06487094 0.0033474623 0.009678979 0.0126026785 0.012925001 0.031148436 0.01341803 -0.0277363
-0.015802642 -0.005818692 0.0049146307 0.011253331 -0.05705092 0.043303274 -0.046275314 -0.0019875038
0.04479746 -0.014663217 -0.014788159 0.030400183 -0.0008075177 -0.03858396 -0.021089435 0.018264353
0.018317128 0.039365098 -0.038179718 0.028230833 0.019145556 0.026902588 -0.008228621 -0.007910522
-0.02532427 0.038586706 0.038166035 -0.01354306 0.033885084 0.013650456 0.0014521194 0.040127862
0.041665763 -0.010323915 -0.061092153 -0.038535573 0.027112648 0.019739002 0.07789497 -0.021550138
-0.03406539 0.015855003 0.032140497 -0.023011984 0.030564008 0.05865122 0.03018568 0.047991294
0.004350599 0.04243529 -0.069740415 -0.051888198 0.028094862 0.05342038 0.007848612 0.030817004
-0.027572054 0.016437743 0.034808014 -0.0055915574 0.04548261 -0.021506997 -0.018930616 -0.054234423
-0.0070588174 -0.0019244208 0.00875982 0.033450473 -0.038863502 -0.03505375 -0.02505269 -0.021386726
-0.029447814 0.0043171057 0.030908968 -0.022793155 0.009774437 -0.013863303 0.07969946 -0.0051205736
0.0051680235 -0.022531968 0.06789575 -0.033297636 0.079525575 0.024203986 -0.00048978545 0.049619112
0.0053677377 0.020796334 0.0017486573 -0.01220798 0.0028397175 -0.035708517 -0.020624988 -0.006260617
-0.015187316 -0.00587338 -0.010036087 0.030070059 0.050042614 -0.0021438617 -0.007687813 0.009932382
-0.027019756 -0.015048451 -0.014152655 -0.011205158 -0.07716388 -0.049091686 -0.051613424 0.0727217
-0.02022884 0.024642957 0.029347813 0.024721297 0.0042724838 -0.0053482894 0.05178889 0.03229545
-0.015728788 0.0844758 0.02670659 -0.0044337744 -0.026509304 -0.015781084 0.057291634 0.00541277
-0.011401981 -0.022674816 -0.008033348 -0.06672316 -0.030072633 0.081402265 -0.011591424 0.013894947
00000000: 41ae 983c 6aec 9cbc 6e2a 2cbd 2c32 d83b
00000010: 594a 053c 77d2 823c 4bc9 89bc c64a 4abb
00000020: dc0b d93c 5e41 263d 275c c9bc 284d fabb
00000030: f0d3 8cbc 586d e7bc dea1 8dbd 18af 34bd
00000040: 5888 c63c 6608 bbbd 6a19 ee3c 7790 ca3b
00000050: 08d2 5abd 8f8d 21bd 3333 96bc aa9d a4bc
00000060: ae6a 7e3a 28d5 3c3d 40a2 a13c b08c 0bbd
00000070: 4b17 603d d48b 8f3b 8c45 1c3c c978 12bd
00000080: 8a20 81bd 62b8 04bd 2763 593c f172 5e3c
00000090: 7047 03bc 1ca2 903b 01ac 12bd 5395 1ebc
000000a0: e48c a5bc 8787 06bd f3ba b1bc b312 2e3d
000000b0: 15a2 41bd 4cd7 bb3c 2314 22bc ac37 063c
000000c0: 2426 3fbc d33b 383c fe5e 66bc a020 363c
000000d0: 2cc2 febb fb94 52bc de63 a2bd 4727 693d
000000e0: 7316 6cbd c0c4 75bd ebcc 87bc cedc 29bd
000000f0: 2d77 63bc 10be 7ebd 8797 95bd 7b64 433c
00000100: 47b2 9cbc b1ff 913d 986d c13d eb6a 17bc
00000110: 51ed f2b8 187c b43c 8a26 3cbc 5072 e73b
00000120: 6e4b e13a 2ce5 77bc ce89 fbbc 0ba7 253b
00000130: 6a10 b13b a29a dd3c 5db9 d73c 7512 fb3a
00000140: ff2a cc3c a793 18bc 36e3 813b dd80 81bc
00000150: c093 ecbc 7505 db3c c496 1e3d 7f30 e1bc
00000160: d60d e1bc 3f65 e03c 3cfd f43c 6f62 f73c
00000170: 729c 73bc 058c 9e3c ce1a d2bb a0c2 093c
00000180: 3575 7bbd 605b 173d d3f8 2cbd f4a7 f63c
00000190: af31 263d e6ed ac3c 7145 e43b 2b9d aabc
000001a0: 6fdd b13b d746 833d 0f37 103d 4785 d8bc
000001b0: e9f6 cbbc 17b4 d2bd 17a0 cbbb 471e 02bd
000001c0: 0edb 843d 1961 5b3b 9594 1e3c 777b 4e3c
000001d0: 62c3 533c 012b ff3c 4cd7 5b3c 3d37 e3bc
000001e0: 8b74 81bc baaa bebb e90a a13b e45f 383c
000001f0: 3aae 69bd c65e 313d 2f8b 3dbd c840 02bb
00000200: 8b7d 373d fd3d 70bc 094a 72bc ce09 f93c
00000210: 98af 53ba 370a 1ebd c0c3 acbc 209f 953c
00000220: cd0d 963c 4c3d 213d 5662 1cbd 5944 e73c
00000230: 24d7 9c3c d162 dc3c 57d1 06bc 229b 01bc
00000240: d874 cfbc 180d 1e3d fd53 1c3d b6e3 5dbc
00000250: 16cb 0a3d 2aa6 5f3c 0b55 be3a 1d5d 243d
00000260: b8a9 2a3d a325 29bc c43b 7abd 7ad7 1dbd
00000270: 581b de3c b0b3 a13c 6687 9f3d ea89 b0bc
00000280: 2688 0bbd 5ae2 813c c1a5 033d a183 bcbc
00000290: 5f61 fa3c 433c 703d f647 f73c 8592 443d
000002a0: 788f 8e3b a0d0 2d3d 10d4 8ebd b888 54bd
000002b0: 3227 e63c 54cf 5a3d 7797 003c f173 fc3c
000002c0: cade e1bc 72a8 863c d992 0e3d 6239 b7bb
000002d0: f94b 3a3d 712f b0bc 6114 9bbc ea24 5ebd
000002e0: a74d e7bb d93c fcba 5985 0f3c 5d03 093d
000002f0: 562f 1fbd 8594 0fbd 4d3b cdbc 3733 afbc
00000300: 8b3c f1bc 8276 8d3b ce34 fd3c b6b8 babc
00000310: f624 203c e822 63bc 7839 a33d 7cca a7bb
00000320: 8658 a93b f694 b8bc ed0c 8b3d 1a63 08bd
00000330: 4ede a23d 7047 c63c f264 00ba 693d 4b3d
00000340: d9e3 af3b 135d aa3c 3433 e53a fb03 48bc
00000350: 8e1a 3a3b 1843 12bd bcf5 a8bc dd25 cdbb
00000360: 38d4 78bc 7c75 c0bb 666e 24bc 7c55 f63c
00000370: 7cf9 4c3d 0880 0cbb 0dea fbbb 6ebb 223c
00000380: 8958 ddbc c78d 76bc 8ae0 67bc d795 37bc
00000390: 1908 9ebd 5d14 49bd 9968 53bd 1def 943d
000003a0: f4b6 a5bc 07e0 c93c d36a f03c 5184 ca3c
000003b0: 3100 8c3b b440 afbb 9620 543d 3c48 043d
000003c0: a9d9 80bc a601 ad3d c7c7 da3c 3249 91bb
000003d0: 0a2a d9bc 5547 81bc a2aa 6a3d 9b5d b13b
000003e0: 60cf 3abc 89c0 b9bc 4e9e 03bc 27a6 88bd
000003f0: e25a f6bc 3bb6 a63d f5e9 3dbc a2a7 633c

sequential.8.bias f4 [64]
0.022167493 -0.0013422968 -0.022790786 -0.024026614 -0.012701953 -0.0029958142 -0.0007445355 0.01986581
0.035250675 0.02645189 0.009503223 0.022192184 0.0023499748 0.035083342 -0.014157468 0.024394792
0.0152166225 0.019522555 0.023932457 0.018405572 -0.0283787 0.018836446 0.020933311 0.020437077
0.009350434 0.026402082 0.020898934 -0.0096413065 -0.02869419 0.033342715 0.016276877 -0.022557154
0.012296513 -0.0304754 -0.0048240535 0.0018027659 -0.0059798253 -0.020498201 -0.009294236 0.026851714
0.016234756 0.015590332 -0.028497905 -0.021097297 0.027144164 -0.01636261 0.006994565 0.0075187497
-0.028807595 0.006466954 -0.030209484 -0.017831763 -0.014267055 -0.0015000693 -0.0047879536 -0.016848786
0.035318937 0.0021895561 0.028891388 -0.003492151 -0.019106431 0.003985364 -0.0073557296 0.015487712
00000000: 9a98 b53c 02f0 afba beb3 babc 76d3 c4bc
00000010: da1b 50bc 6c55 44bb ee2c 43ba a0bd a23c
00000020: 0363 103d a2b1 d83c 68b3 1b3c 62cc b53c
00000030: 0902 1a3b 8db3 0f3d baf4 67bc 96d7 c73c
00000040: 244f 793c c4ed 9f3c 000e c43c 48c7 963c
00000050: 737a e8bc e44e 9a3c 567c ab3c a86b a73c
00000060: 9032 193c 2e49 d83c 3e34 ab3c 92f6 1dbc
00000070: 1410 ebbc 5f92 083d 1657 853c c8c9 b8bc
00000080: 5077 493c 8ca7 f9bc 1813 9ebb c94a ec3a
00000090: 69f2 c3bb d8eb a7bc da46 18bc 20f8 db3c
000000a0: c0fe 843c 986e 7f3c 7074 e9bc 3dd4 acbc
000000b0: 705d de3c e10a 86bc aa32 e53b d85f f63b
000000c0: e8fd ebbc bee8 d33b e179 f7bc eb13 92bc
000000d0: 5ec0 69bc f99d c4ba 44e4 9cbb 7706 8abc
000000e0: 97aa 103d a87e 0f3b a2ad ec3c 92dc 64bb
000000f0: 1785 9cbc a897 823b 5508 f1bb 2cc0 7d3c

sequential.9.weight f4 [64]
1.3088874 1.3806944 1.3426843 1.4152366 1.3522024 1.3122287 1.3355794 1.383912
1.409169 1.367349 1.3447461 1.3990039 1.4006215 1.3369482 1.3480304 1.3342009
1.3622013 1.3264625 1.3313404 1.4001399 1.3730088 1.3634442 1.3493203 1.3988875
1.3287004 1.3351264 1.3583322 1.3514888 1.3425986 1.329835 1.3645581 1.3693743
1.3519589 1.3883768 1.43271 1.3421615 1.3653004 1.3305444 1.3906561 1.3618128
1.323755 1.3373133 1.3933939 1.31315 1.3108609 1.3383759 1.381699 1.3589903
1.3046602 1.3353378 1.3567152 1.3928668 1.3607739 1.3547523 1.3339938 1.3263131
1.3556013 1.3134868 1.3650881 1.3684907 1.3027624 1.3499682 1.4373366 1.3610446
00000000: 9f89 a73f 98ba b03f 14dd ab3f 7926 b53f
00000010: f814 ad3f 1cf7 a73f 44f4 aa3f 0724 b13f
00000020: a65f b43f 4b05 af3f a420 ac3f 8f12 b33f
00000030: 9147 b33f 1e21 ab3f 438c ac3f 18c7 aa3f
00000040: 9d5c ae3f 86c9 a93f 5d69 aa3f c937 b33f
00000050: c1be af3f 5785 ae3f 87b6 ac3f bf0e b33f
00000060: db12 aa3f 6ce5 aa3f d4dd ad3f 96fd ac3f
00000070: 45da ab3f 0938 aa3f d7a9 ae3f a847 af3f
00000080: fd0c ad3f 55b6 b13f 0b63 b73f f3cb ab3f
00000090: 2ac2 ae3f 474f aa3f 0501 b23f e24f ae3f
000000a0: ce70 a93f 152d ab3f bb5a b23f 4d15 a83f
000000b0: 4aca a73f e74f ab3f 83db b03f 65f3 ad3f
000000c0: 1bff a63f 59ec aa3f d8a8 ad3f 7649 b23f
000000d0: d72d ae3f 8668 ad3f 4fc0 aa3f a1c4 a93f
000000e0: 5884 ad3f 5620 a83f 35bb ae3f b42a af3f
000000f0: ebc0 a63f c2cb ac3f a5fa b73f b636 ae3f

sequential.9.bias f4 [64]
-0.085729435 -0.13308862 -0.10514899 -0.1549565 -0.096566364 -0.11881982 -0.1369052 -0.12308473
-0.09213577 -0.13814269 -0.13115817 -0.14475381 -0.13087906 -0.12952404 -0.13541722 -0.10799835
-0.08143356 -0.124994524 -0.13544394 -0.12075394 -0.14151058 -0.09348065 -0.14314121 -0.16191697
-0.114311114 -0.10883842 -0.15148948 -0.13323095 -0.1036453 -0.1447405 -0.12987787 -0.09019291
-0.1442745 -0.13087657 -0.12977672 -0.0968896 -0.109618455 -0.14289252 -0.1376294 -0.12534146
-0.10654548 -0.15446754 -0.07193047 -0.15316612 -0.080108486 -0.110957325 -0.12162905 -0.115614235
-0.091614075 -0.09740758 -0.14487356 -0.17583781 -0.16015558 -0.083841644 -0.100679584 -0.14813113
-0.15383537 -0.12591352 -0.08088819 -0.12721173 -0.09375148 -0.104196146 -0.13520426 -0.12650007
00000000: ea92 afbd 6248 08be 5b58 d7bd ebac 1ebe
00000010: 96c4 c5bd ce57 f3bd e030 0cbe d913 fcbd
00000020: aeb1 bcbd 4775 0dbe 544e 06be 583a 14be
00000030: 2905 06be f3a1 04be d0aa 0abe 3d2e ddbd
00000040: a3c6 a6bd 21fd ffbd d1b1 0abe d74d f7bd
00000050: 26e8 10be c872 bfbd 9c93 12be 90cd 25be
00000060: f21b eabd ade6 debd 0f20 1bbe b26d 08be
00000070: fd43 d4bd db36 14be b4fe 04be 0fb7 b8bd
00000080: b2bc 13be 8204 06be 30e4 04be 0e6e c6bd
00000090: a47f e0bd 6b52 12be b9ee 0cbe 8359 00be
000000a0: 8434 dabd bd2c 1ebe 4850 93bd 94d7 1cbe
000000b0: eb0f a4bd 983d e3bd a718 f9bd 28c7 ecbd
000000c0: 29a0 bbbd a07d c7bd bc59 14be d40e 34be
000000d0: d3ff 23be 2bb5 abbd 1931 cebd b0af 17be
000000e0: 0587 1dbe 79ef 00be b5a8 a5bd cb43 02be
000000f0: c700 c0bd ca64 d5bd fc72 0abe 3c89 01be

sequential.9.running_mean f4 [64]
-0.27390656 0.030113691 -0.3739063 0.018722013 -0.2426285 -0.27152437 -0.50858074 -0.5192519
-0.1753045 -0.34384084 -0.013714025 -0.2667171 -0.121725045 -0.06821738 -0.057606764 -0.5189219
0.11887848 -0.12631926 -0.5670303 -0.04949931 -0.09102095 -0.41035932 -0.7516823 -0.56374097
-0.33716625 -0.32275563 0.36105844 -0.14965001 -0.16679525 -0.032250755 0.032902677 0.124810584
0.081859425 -0.08345117 0.28990334 -0.64580524 0.12232203 -0.11844163 -0.3072882 0.04357919
-0.12591934 -0.27896908 -0.15044017 0.06633172 -0.16321245 0.24580243 -0.20886013 -0.6657975
0.13430718 -0.55157954 -0.16804817 0.028989363 0.32458636 -0.25986296 -0.43097576 -0.7825095
0.1601009 0.15230814 0.03447345 -0.92633414 -0.18018489 -0.39011678 0.42547092 -0.3922046
00000000: 7b3d 8cbe fdb0 f63c a670 bfbe e85e 993c
00000010: 9b73 78be 3e05 8bbe 5932 02bf b1ed 04bf
00000020: 0683 33be e80b b0be cab0 60bc 258f 88be
00000030: fb4a f9bd 8eb5 8bbd 12f5 6bbd 11d8 04bf
00000040: 8f76 f33d d659 01be e628 11bf cabf 4abd
00000050: 3169 babd 9e1a d2be 406e 40bf 5451 10bf
00000060: 0ea1 acbe 3a40 a5be a7dc b83e da3d 19be
00000070: 60cc 2abe 5e19 04bd f5c4 063d b19c ff3d
00000080: eaa5 a73d 72e8 aabd 366e 943e 7e53 25bf
00000090: f983 fa3d 8691 f2bd e154 9dbe 1880 323d
000000a0: 00f1 00be 09d5 8ebe fd0c 1abe edd8 873d
000000b0: 2a21 27be a2b3 7b3e 6edf 55be b471 2abf
000000c0: d287 093e 5134 0dbf d214 2cbe 1a7b ed3c
000000d0: 2f30 a63e c20c 85be dba8 dcbe 8b52 48bf
000000e0: 7ef1 233e aaf6 1b3e 0834 0d3d 3c24 6dbf
000000f0: 6382 38be 63bd c7be 53d7 d93e 0bcf c8be

sequential.9.running_var f4 [64]
1.3109354 1.7071719 1.4315968 2.098932 1.5715748 1.5325865 1.5686963 1.7890184
1.8764893 1.877922 1.4688921 1.9934769 1.6839749 1.6084073 1.6077144 1.3352875
1.7203976 1.6540091 1.7476145 2.2289853 1.6576474 1.4625895 2.001944 2.1490862
1.5955809 1.4981463 2.0359101 1.6030928 1.5453357 1.7250446 1.6973742 1.6923717
1.6699486 1.7188437 1.7487502 1.589262 1.5735891 1.5967969 2.0241597 1.8912704
1.2970388 1.677847 1.7719394 1.4469229 1.4105419 1.3418043 1.7151277 1.607212
1.4277068 1.7755657 1.7256855 1.9113492 1.5756788 1.5829176 1.3339444 1.5842838
1.6899627 1.4438839 1.456127 2.036034 1.4084979 1.5629959 1.8643254 1.5533358
00000000: bbcc a73f 9c84 da3f 903e b73f e754 0640
00000010: 5d29 c93f cb2b c43f 0acb c83f 8efe e43f
00000020: cd30 f03f c05f f03f a804 bc3f 402a ff3f
00000030: 7d8c d73f 4ae0 cd3f 96c9 cd3f b3ea aa3f
00000040: fd35 dc3f 92b6 d33f d5b1 df3f b2a7 0e40
00000050: ca2d d43f 2236 bb3f da1f 0040 a18a 0940
00000060: ff3b cc3f 42c3 bf3f 5a4c 0240 2532 cd3f
00000070: 8fcd c53f 43ce dc3f 8f43 d93f a39f d83f
00000080: e0c0 d53f 1203 dc3f 0cd7 df3f f06c cb3f
00000090: 5e6b c93f d763 cc3f d58b 0140 2615 f23f
000000a0: 5e05 a63f b1c3 d63f e9ce e23f c534 b93f
000000b0: a38c b43f 3ec0 ab3f 4e89 db3f 1fb9 cd3f
000000c0: 19bf b63f bd45 e33f 43e3 dc3f 17a7 f43f
000000d0: d8af c93f 0b9d ca3f b1be aa3f d0c9 ca3f
000000e0: b350 d83f 30d1 b83f 5f62 ba3f 624e 0240
000000f0: a949 b43f 4010 c83f 37a2 ee3f b5d3 c63f

sequential.13.weight f4 [64, 1024]
-0.021729583 -0.020807127 0.011442089 -0.008338087 0.00397461 -0.04979564 -0.018353587 -0.032581143
-0.03731618 -0.008151322 0.024002304 0.044408493 -0.025942314 -0.0033634182 0.0755841 0.004766269
-0.028721863 0.026590966 -0.02669419 -0.0071106725 0.014126929 -0.01774217 0.056427684 -0.044653907
0.001693305 -0.013477625 0.033366475 -0.04966082 -0.027952936 0.07611683 -0.036579117 -0.0036439328
-0.11391714 -0.02360838 -0.031327818 0.016998623 -0.019893333 0.04246692 -0.00032558985 -0.050438546
0.018464923 0.01759636 0.018292684 0.0082568275 -0.04689414 -0.03951327 0.018964631 -0.023000328
0.032165337 -0.007272666 0.0026436811 -0.003770081 0.0077588693 -0.02497688 0.045298085 0.0046538403
-0.03054848 -0.028549489 -0.07154731 -0.004591787 0.012832247 0.02365898 -0.03445438 0.019541075
-0.015845543 -0.014877428 0.015491524 -0.013246349 -0.038881894 0.0120596 -0.002723174 -0.039421137
-0.025420377 -0.05423497 -0.0479828 -0.05022937 -0.041103873 -0.061241984 -0.06380374 -0.025568228
0.0072144703 0.011562256 0.0025963457 0.0063032294 -0.03931781 -0.080264285 0.0006659603 0.017319016
-0.060062815 0.0063022184 -0.012031673 -0.09815438 -0.07608168 0.053264182 0.029730272 0.0242063
-0.06354629 -0.011196015 0.010231044 -0.05082256 0.037026852 0.016356252 -0.011464475 0.00056539924
0.019100793 0.033937227 -0.022897651 0.02418485 0.039769668 -0.015229049 -0.018064877 -0.011431168
0.026525414 -0.03926492 0.01976478 -0.0035339126 0.0065834895 -0.0396209 0.010399387 -0.022000454
0.0371642 0.042734846 0.0014692096 -0.049438313 -0.048214626 0.043172445 -0.009909206 0.009274356
-0.0022108604 0.024574969 -0.041221794 0.02160917 0.020480888 0.0076934933 0.098083794 0.026567852
0.008868974 -0.01609562 0.03807294 0.048850283 0.042336486 0.06077011 0.055364173 0.04331453
-0.0005492385 0.008128093 -0.016994253 -0.004888783 -0.011308864 -0.037024733 -0.00076601666 -0.03180834
-0.036388412 -0.029085444 -0.018956391 -0.016725091 -0.012733054 0.055887237 0.07800066 0.03245835
-0.011269456 -0.053225726 0.027129056 -0.02458568 -0.052652653 0.038545966 0.031370286 0.04992751
-0.04360864 -0.017047621 0.01654931 0.022327883 0.011024535 0.022280676 -0.0035538168 0.013874456
0.03776382 0.06792247 0.033959303 0.036650445 -0.024175743 0.033900455 0.08717692 -0.013314624
-0.005161543 -0.021742433 0.040157966 0.027329564 -0.046690997 0.014310451 0.017658148 0.015420898
0.0039448845 0.056309786 -0.035932966 -0.03706036 0.0023807627 0.0693469 -0.0061252657 -0.020863447
-0.026774418 0.0018305118 -0.0729496 0.033860143 -0.009010374 -0.06737987 -0.06855324 0.022420041
-0.005151718 0.0233865 0.053524524 0.020424662 0.010944327 -0.008807817 -0.05801126 0.016879342
-0.031257793 -0.014721437 0.060486812 0.030906847 0.047705226 -0.017169105 -0.022555932 -0.028984137
-0.009634116 -0.01573208 -0.056396782 -0.02836919 -0.016985312 0.01810777 0.007249026 0.023708409
-0.024549875 0.015724981 -0.021540327 0.010467324 0.0058018677 -0.02962927 0.015378913 -0.019335717
-0.019834477 0.03942393 -0.030344084 -0.017435547 -0.05448137 0.05638088 -0.066688396 0.0085514365
-0.0432466 0.040282957 -0.012337216 -0.018048923 0.055582576 0.04323717 -8.791443e-05 -0.040019363
00000000: 3d02 b2bc b573 aabc 9a77 3b3c 799c 08bc
00000010: 723d 823b 83f6 4bbd 435a 96bc ce73 05bd
00000020: dad8 18bd 1f8d 05bc 7ba0 c43c aee5 353d
00000030: fa84 d4bc cb6c 5cbb d6cb 9a3d 5d2e 9c3b
00000040: 1d4a ebbc 4cd5 d93c c6ad dabc a500 e9bb
00000050: a374 673c 0758 91bc b720 673d 04e7 36bd
00000060: e3f1 dd3a 42d1 5cbc 49ab 083d 2569 4bbd
00000070: 8efd e4bc 24e3 9b3d fcd3 15bd 0ccf 6ebb
00000080: 644d e9bd 5d66 c1bc 9951 00bd b240 8b3c
00000090: 58f7 a2bc cbf1 2d3d eeb3 aab9 a698 4ebd
000000a0: c043 973c 3e26 903c 8ada 953c a547 073c
000000b0: 1214 40bd abd8 21bd b75b 9b3c 2f6b bcbc
000000c0: cdbf 033d 8b4f eebb 9c41 2d3b 7713 77bb
000000d0: 1d3e fe3b 509c ccbc 7c8a 393d 3e7f 983b
000000e0: ce40 fabc 9ee0 e9bc 6587 92bd b376 96bb
000000f0: 583e 523c 7ad0 c13c 0920 0dbd 9b14 a03c
00000100: 83ce 81bc 75c0 73bc 29d0 7d3c 3707 59bc
00000110: 9f42 1fbd a195 453c 4777 32bb 0f78 21bd
00000120: 653e d0bc 7d25 5ebd 9d89 44bd 50bd 4dbd
00000130: 895c 28bd e0d8 7abd 89ab 82bd 7674 d1bc
00000140: 5d67 ec3b 9e6f 3d3c 7427 2a3b 528b ce3b
00000150: b60b 21bd 9a61 a4bd d793 2e3a 9ce0 8d3c
00000160: 6d04 76bd d782 ce3b 7f20 45bc 2a05 c9bd
00000170: b6d0 9bbd 8b2b 5a3d e68c f33c 4a4c c63c
00000180: 8f24 82bd 7e6f 37bc 1ca0 273c 512b 50bd
00000190: 78a9 173d 8cfd 853c 7ed5 3bbc 4d37 143a
000001a0: 4479 9c3c c301 0b3d db93 bbbc 4e1f c63c
000001b0: 85e5 223d 4383 79bc cbfc 93bc cb49 3bbc
000001c0: d34b d93c 41d4 20bd bfe9 a13c 3799 67bb
000001d0: 50ba d73b 8649 22bd 3162 2a3c 4c3a b4bc
000001e0: 7d39 183d bc0a 2f3d 7e92 c03a d47f 4abd
000001f0: b37c 45bd 97d5 303d 395a 22bc 78f3 173c
00000200: 15e4 10bb 7251 c93c 2fd8 28bd b705 b13c
00000210: 89c7 a73c b319 fc3b 28e0 c83d d3a4 d93c
00000220: 2c4f 113c f6da 83bc 5ff2 1b3d 3c17 483d
00000230: 0669 2d3d 14ea 783d 8bc5 623d 946a 313d
00000240: c6fa 0fba b12b 053c 8837 8bbc 1632 a0bb
00000250: d048 39bc 3fa7 17bd 82ce 48ba 7649 02bd
00000260: 040c 15bd 9944 eebc 6f4a 9bbc 0f03 89bc
00000270: 4d9e 50bc 04ea 643d cfbe 9f3d 0cf3 043d
00000280: 86a3 38bc 3803 5abd c13d de3c e867 c9bc
00000290: 4faa 57bd 60e2 1d3d 217e 003d ca80 4c3d
000002a0: f99e 32bd 74a7 8bbc 6b92 873c f7e8 b63c
000002b0: 40a0 343c f785 b63c 27e7 68bb b051 633c
000002c0: 3cae 1a3d f01a 8b3d e918 0b3d c71e 163d
000002d0: 350c c6bc 34db 0a3d d089 b23d 9525 5abc
000002e0: 2922 a9bb 301d b2bc ae7c 243d 40e2 df3c
000002f0: 0f3f 3fbd 6276 6a3c d2a7 903c efa7 7c3c
00000300: 1744 813b 17a5 663d 722e 13bd 9bcc 17bd
00000310: 9206 1c3b bf05 8e3d 74b6 c8bb d2e9 aabc
00000320: 0656 dbbc c9ed ef3a 9a66 95bd efb0 0a3d
00000330: 3fa0 13bc 75fe 89bd a465 8cbd 3caa b73c
00000340: becf a8bb 0c95 bf3c 883c 5b3d 9f51 a73c
00000350: d64f 333c a94e 10bc 379d 6dbd 8c46 8a3c
00000360: 2c08 00bd 2f32 71bc 05c1 773d 5b30 fd3c
00000370: 8e66 433d 39a6 8cbc 38c7 b8bc 2470 edbc
00000380: 69d8 1dbc 90e0 80bc 5000 67bd 8166 e8bc
00000390: c824 8bbc bf56 943c 3d89 ed3b 2338 c23c
000003a0: d21c c9bc add1 803c 5775 b0bc 247f 2b3c
000003b0: 981d be3b 15b9 f2bc d6f7 7b3c f065 9ebc
000003c0: ea7b a2bc fd7a 213d 2894 f8bc fed4 8ebc
000003d0: db27 5fbd a3ef 663d ed93 88bd 531b 0c3c
000003e0: 5923 31bd beff 243d 0922 4abc 56db 93bc
000003f0: 8eaa 633d 7519 313d b35e b8b8 58eb 23bd

sequential.13.bias f4 [64]
-0.029371038 -0.0051538623 -0.0066694035 -0.00050009624 0.016353536 -0.0008190258 0.0065163863 0.00093981245
-0.027778715 -0.010578695 0.00930068 0.023351531 0.03175176 0.0045612855 -0.026467953 -0.014208884
0.018707996 -0.016769292 -0.028219778 0.016731534 -0.032603648 0.02486878 -0.028409578 -0.011913173
-0.010141849 0.012962558 -0.00014249983 -0.0031187928 -0.009957244 -0.014204654 -0.011827324 -0.024797732
0.019694667 0.010963989 0.010027074 -0.0111699635 0.025029339 0.006227808 0.0012467892 0.010124729
-0.0070408243 0.014443224 0.020786025 0.0074311374 -0.011335494 0.009611178 -0.022612637 0.027886244
-0.008185026 -0.033054117 -0.025083713 0.028003203 0.0072537735 0.020858018 0.007779393 -0.007950623
0.029699264 -0.016324472 0.037167225 0.0065526958 0.013920602 0.018659823 -0.0137059875 -0.013265477
00000000: 889b f0bc bbe1 a8bb 038b dabb e418 03ba
00000010: daf7 853c e4b3 56ba 6987 d53b bf5d 763a
00000020: 3090 e3bc 4352 2dbc e161 183c b64b bf3c
00000030: 220e 023d d676 953b 52d3 d8bc 61cc 68bc
00000040: 8341 993c c15f 89bc 2a2d e7bc 9210 893c
00000050: 678b 05bd 9db9 cb3c 34bb e8bc 782f 43bc
00000060: ff29 26bc e960 543c 026c 15b9 a964 4cbb
00000070: b523 23bc a3ba 68bc 64c7 41bc 9d24 cbbc
00000080: b656 a13c 4ea2 333c 9948 243c 3902 37bc
00000090: 540a cd3c a412 cc3b 4e6b a33a 31e2 253c
000000a0: b7b6 e6bb 46a3 6c3c 7447 aa3c e680 f33b
000000b0: 82b8 39bc 3478 1d3c 233e b9bc b171 e43c
000000c0: 7d1a 06bc c163 07bd 5c7c cdbc f966 e53c
000000d0: 10b1 ed3b 6fde aa3c 47ea fe3b 5443 02bc
000000e0: df4b f33c e6ba 85bc a93c 183d ffb7 d63b
000000f0: 3d13 643c 7cdc 983c 148f 60bc 7157 59bc

sequential.14.weight f4 [10, 64]
-0.47725877 -0.09625192 0.2776833 -0.31029332 0.015175013 -0.39239806 0.37598398 -0.047682203
0.5444003 0.2133542 0.50235707 0.2803468 -0.28652734 0.14383668 0.45223808 -0.0840775
-0.024560353 -0.11993595 -0.18316461 0.3122186 -0.104350716 -0.2086516 0.37926173 -0.23376946
0.5192262 -0.36974058 0.30103827 0.24878183 -0.41001073 -0.13301747 0.24271049 -0.17687696
0.44569728 0.40225875 0.32401714 0.42249864 0.2059723 0.25320634 -0.13254507 0.07248207
-0.16067931 0.2826677 0.24008612 -0.13090861 0.4762564 0.016193943 -0.11727982 0.10443296
-0.36351225 -0.20054999 -0.22819373 0.29086596 -0.37637538 0.19086812 -0.004500037 0.045555804
0.51422006 -0.3955915 0.0808045 0.039993495 -0.48620024 -0.25754902 0.41691697 -0.059613895
0.02535839 -0.30869925 -0.41363245 -0.2255606 0.23467952 -0.13473861 0.19167487 -0.19203688
0.3899569 -0.44210637 -0.23829815 0.5010556 -0.18283291 0.17640437 0.2127995 -0.02051899
0.42824134 0.2798084 0.26108992 -0.10587267 0.4898487 -0.17106423 0.13136618 0.32902956
0.18687537 0.24283186 -0.22257149 0.4139398 -0.14656256 -0.23748484 0.38977957 -0.022360457
-0.3146059 -0.23265065 -0.25393993 0.12036926 -0.49999627 -0.37908772 0.18006444 0.10342144
0.4294252 -0.048396185 -0.4180825 -0.33497843 0.3366899 -0.1287783 -0.1284394 0.23092072
-0.0765507 0.4245022 0.09515761 -0.14035547 0.033660717 0.5659693 0.20045322 -0.3379974
-0.16908047 0.346587 -0.46511832 -0.06932669 0.11555316 0.11102139 -0.37447777 -0.0053655873
0.13751444 0.4670765 0.39833033 -0.18169357 -0.47106418 -0.11749053 0.0972955 0.07430405
-0.8099083 -0.60206145 0.107153684 -0.1356343 -0.15580338 0.5289343 0.13135067 -0.34402463
0.481546 -0.13493748 0.3617665 0.27959597 -0.09861602 -0.044352647 0.25480378 -0.36711657
-0.24665238 0.45786163 0.50808096 -0.04079875 0.18816434 0.4246996 -0.10266793 0.084009744
0.06477517 -0.51274705 -0.0041193566 -0.34069464 0.37029022 -0.38455972 -0.57073504 -0.14008611
-0.43381715 -0.09263434 0.103247605 -0.26882792 0.21880007 0.059627358 -0.031347975 0.12149709
-0.5077171 -0.08939849 0.3635272 0.04414401 -0.2778492 -0.4165775 -0.38790035 0.33920634
0.22512424 0.4851427 0.37101847 0.22930162 -0.5521607 -0.44998354 -0.16626504 -0.034664597
-0.32547075 -0.07126557 0.40337262 0.08262881 0.40467274 -0.46090853 -0.45191485 -0.09580788
0.22635694 -0.25839075 -0.37886447 -0.39400944 -0.3101296 0.06932252 0.07972319 -0.043679893
-0.08569826 -0.2469378 -0.32852188 0.20903122 -0.1828151 0.3276326 0.18013424 0.4815289
-0.32211846 -0.3053257 -0.43101355 -0.13557495 -0.047830816 0.4366105 0.34266603 0.4813303
-0.0067615616 0.049925704 0.2900386 0.1376781 -0.20263734 0.35853592 -0.03846465 0.3438181
-0.3197134 0.39446464 0.11029616 -0.49575526 -0.6569885 0.2565821 0.20228396 -0.4911894
-0.41672376 -0.17527002 -0.25043035 -0.29378074 0.15640944 -0.41153318 -0.03923505 -0.15926452
-0.59474325 -0.08054649 -0.06498115 -0.08365735 0.346863 0.32193974 -0.21713097 -0.20054992
00000000: 435b f4be ba1f c5bd 812c 8e3e c4de 9ebe
00000010: 9ea0 783c 66e8 c8be f980 c03e 6a4e 43bd
00000020: d15d 0b3f 8679 5a3e 799a 003f 9e89 8f3e
00000030: b6b3 92be ec49 133e c08b e73e d330 acbd
00000040: cb32 c9bc fba0 f5bd 818f 3bbe 1edb 9f3e
00000050: d4b5 d5bd c4a8 55be 982e c23e 4361 6fbe
00000060: 02ec 043f a34e bdbe b021 9a3e aac0 7e3e
00000070: edec d1be bb35 08be 1989 783e 3c1f 35be
00000080: 6f32 e43e dcf4 cd3e 93e5 a53e be51 d83e
00000090: 67ea 523e 43a4 813e e5b9 07be 7b71 943d
000000a0: 1e89 24be d2b9 903e 23d9 753e e80c 06be
000000b0: e1d7 f33e 29a9 843c 6730 f0bd f3e0 d53d
000000c0: 471e babe fa5c 4dbe 9eab 69be 62ec 943e
000000d0: 46b4 c0be ef72 433e 0c75 93bb b998 3a3d
000000e0: eda3 033f f88a cabe d47c a53d 38d0 233d
000000f0: 3def f8be 77dd 83be 2476 d53e b32d 74bd
00000100: 66bc cf3c d40d 9ebe a2c7 d3be 5cf9 66be
00000110: d44f 703e ebf8 09be 6b46 443e 51a5 44be
00000120: 6ea8 c73e c45b e2be 6e04 74be 2e45 003f
00000130: 8d38 3bbe 59a3 343e 1de8 593e 7117 a8bc
00000140: 7342 db3e 0c43 8f3e 94ad 853e c5d3 d8bd
00000150: 73cd fa3e 762b 2fbe db84 063e 9076 a83e
00000160: 425c 3f3e eaa8 783e c8e9 63be ebef d33e
00000170: 7f14 16be 3a2f 73be 3091 c73e 472d b7bc
00000180: 0614 a1be f93b 6ebe 6a04 82be 2984 f63d
00000190: 83ff ffbe c917 c2be d062 383e 9fce d33d
000001a0: 9fdd db3e 143b 46bd e90e d6be 4b82 abbe
000001b0: 9e62 ac3e 75de 03be 9e85 03be 7b76 6c3e
000001c0: 9dc6 9cbd 5a58 d93e fee1 c23d 58b9 0fbe
000001d0: d2df 093d 5de3 103f 9c43 4d3e ff0d adbe
000001e0: 6e23 2dbe da73 b13e fd23 eebe 27fb 8dbd
000001f0: 23a7 ec3d 2f5f e33d 8dbb bfbe cfd1 afbb
00000200: 96d0 0c3e a724 ef3e f4f1 cb3e e10d 3abe
00000210: 532f f1be e09e f0bd dd42 c73d b92c 983d
00000220: 2656 4fbf b320 1abf 6473 db3d b8e3 0abe
00000230: ec8a 1fbe 3d68 073f ca80 063e ff23 b0be
00000240: 338d f63e 0d2d 0abe 7539 b93e 3427 8f3e
00000250: 32f7 c9bd 1fab 35bd a475 823e b4f6 bbbe
00000260: 7192 7cbe d76c ea3e 9811 023f 971c 27bd
00000270: 27ae 403e 3a72 d93e 9043 d2bd 4d0d ac3d
00000280: d8a8 843d 6443 03bf abfb 86bb 876f aebe
00000290: ae96 bd3e 03e5 c4be b11b 12bf bc72 0fbe
000002a0: 481d debe 13b7 bdbd 7b73 d33d d0a3 89be
000002b0: 200d 603e d13b 743d bc66 00bd 77d3 f83d
000002c0: bff9 01bf 8e16 b7bd 3d20 ba3e 59d0 343d
000002d0: 4042 8ebe a549 d5be e09a c6be 74ac ad3e
000002e0: f886 663e a064 f83e 22f6 bd3e 0bce 6a3e
000002f0: 675a 0dbf 3e64 e6be 6241 2abe 77fc 0dbd
00000300: 1aa4 a6be aff3 91bd db86 ce3e 4b39 a93d
00000310: 4431 cf3e 34fc ebbe 6261 e7be ec36 c4bd
00000320: 1dca 673e cb4b 84be 86fa c1be 9bbb c9be
00000330: 4fc9 9ebe f7f8 8d3d e945 a33d b0e9 32bd
00000340: 9282 afbd 43dd 7cbe 0534 a8be 480c 563e
00000350: e233 3bbe 76bf a73e 1c75 383e f58a f63e
00000360: b6ec a4be a653 9cbe cfad dcbe 29d4 0abe
00000370: 3fea 43bd 698b df3e ec71 af3e ed70 f63e
00000380: 1790 ddbb e57e 4c3d f07f 943e 7dfb 0c3e
00000390: 2a80 4fbe 0592 b73e 1c8d 1dbd ed08 b03e
000003a0: 7ab1 a3be 45f7 c93e f4e2 e13d a2d3 fdbe
000003b0: 6630 28bf bb5e 833e 8723 4f3e 2d7d fbbe
000003c0: d15c d5be fc79 33be 6838 80be 6e6a 96be
000003d0: cc29 203e 7ab4 d2be efb4 20bd 3d16 23be
000003e0: 1841 18bf 8ff5 a4bd d614 85bd 8b54 abbd
000003f0: 0798 b13e 49d5 a43e 9557 5ebe f55c 4dbe

sequential.14.bias f4 [10]
0.03760455 0.06058325 0.0666958 -0.07502488 0.00027608164 0.010628659 -0.04707728 -0.051262047
-0.067073286 -0.023519387
00000000: 3b07 1a3d 2426 783d cf97 883d a5a6 99bd
00000010: 0dbf 9039 d423 2e3c 1bd4 40bd 27f8 51bd
00000020: b85d 89bd bbab c0bc
