learning_pytorch_shizhan/trained_save/NET_100_colab.pth (torch, 585415 bytes, 10 tensors)

sequential.0.weight f4 [32, 3, 5, 5]
00000000: 6bce 3f3e e65d e63c b2e3 3b3e 9603 603e
00000010: 4770 c83d f6b7 5d3d 127c 0bbd 746a 063e
00000020: dbd4 ac3c 8b0f 5fba aa06 3bbc 060b dd3d
00000030: 52d9 023e 2d58 f6bc f828 a13d 9c79 b93d
00000040: 99e5 48bd 2633 b43d 6ff1 3f3e e7df 443e
00000050: 7947 ad3d 8f9e 4c3d d7ef 223d e9f5 97bd
00000060: 7aa4 783c 4f82 ea3d 823b 4e3e 003a 113e
00000070: 352e 013e 786a a83d 801b 9fbd df43 9c3d
00000080: b007 16be 800b fabd e202 8f3d f64d a63d
00000090: fd41 9fbd bd06 22bd 040d 303d 586d 8bbd
000000a0: b083 763d 7b15 2ebd 1a22 d23c 9eee 6fbd
000000b0: 66f0 9fbb 3dae 45ba 0323 543d 74c2 98bd
000000c0: 0e66 173d 22b5 1bbe 8f00 d3bc ce13 d03a
000000d0: 789b ba3d e5ce 0b3d cc2c 3e3d deb2 f6bd
000000e0: bd19 63bd bca1 22be 4ff7 04be 0f00 7cbd
000000f0: f75b afbd 0e20 04be 8a06 cbbc 2c9b abbd
00000100: 61ae 60bd a382 c0bd bf7b b93d f29d 453d
00000110: 7a4b ba3d f918 463d a138 04be 8dcc 263c
00000120: e442 00be c9b8 d1bd 87fd 1abc ab30 0ebd
00000130: 2341 a0bd b476 b7ba 346d 493c 2d1a 82bd
00000140: a180 613d 4f0b c73d 99f6 0bbd a457 ba3c
00000150: be05 c6bd 7467 36bd 4b81 b5bb f2a5 393c
00000160: 50b3 dfbb 1eaf ce3d b88a 3c3d ec2e 32bd
00000170: b0f7 3ebc 9590 9e3d 1462 cabd fa3b cfbd
00000180: 0182 ae3d d248 a7bd 9f99 723d a367 453d
00000190: 765d d6bd 50f9 b73d a0a3 983d cc3a 9dbc
000001a0: d030 803c a165 a1bd 7419 a63d a0ba db3b
000001b0: 6b53 cfbd 8314 b6bd 906b 9cbd 100f 9b3c
000001c0: a83c c33d e7b7 e2bd 026d ff3c c0e3 b8bd
000001d0: 1cd9 e1bd 0e54 c1bc 136f b53d 4b47 d6bd
000001e0: eec5 373b 3e34 de3c 3e1f 3ebd f3bc 953c
000001f0: ef84 e7bd 6398 f1bb 8a9a 6c3d fa5d f4bc
00000200: c328 e93d d4da a83d f2ed 153d 1767 9e3c
00000210: f603 4f3d 9004 e33d 7acb a03c b4be 033d
00000220: 50b2 4f3d d558 6ebd 72ca 623d c519 6e3c
00000230: d441 c4bd b1e2 0e3b 5130 8c3d 7f9d 68bd
00000240: cbfa cdbd e3b0 d43b 0785 963c 442d 2cbc
00000250: 1af9 0d3d 8477 bf3d 8698 c6bd 50f1 81bc
00000260: 1c61 983d 7d2d 153d f638 5a3d 5eb9 f93d
00000270: 003e 12bd 243c 113c 5ea3 df3d b90d cd3d
00000280: 3f51 223e d727 093e 1815 953a 9473 08bb
00000290: 5c75 473d 777e ac3d 9652 09bd 92f7 293e
000002a0: 78a1 193c 26f2 fe3d 5aeb 353e ce99 7cbc
000002b0: e432 bf3d c456 343e a409 223e 0d9e de3d
000002c0: 1457 c33d 1bb4 a03d c53d df3d c7e5 793d
000002d0: ecb8 60bd 0bab 0dbc aa83 0a3c c32c 22bd
000002e0: 8989 833d e41d f4bd a683 633d 3c93 0a3e
000002f0: 4461 8ebd 5f4e 8abc da98 86bd 5f84 cfbc
00000300: 29ac e1bc 98fb 803d b424 5cbd 8139 0cbe
00000310: 5820 61bd d94f 5abd 24b7 acbd 1e8e 24be
00000320: d0d2 0f3e d376 273e e1fe 1b3e e894 113e
00000330: fbe6 26bd fbf7 bc3d 2cb3 a13d e882 1d3e
00000340: f9c3 3bbb 36c7 5cbd 974a aa3d 0dd9 a83d
00000350: 1bcf 73bc ee06 e83d dcbc afbc 575e acbc
00000360: c9c7 b73d 0541 30bd c9ab 513d 0dc5 94bd
00000370: 32ae afbd 62ee 8d3d ebc8 87bd b0ef 11be
00000380: 31dc d33a 5b0f 30be b695 413c a90a ffbc
00000390: 9eda 1fbd 544d ee3c 7b57 55bd 56ee 0b3d
000003a0: 79c1 1c3e ab09 113e 3d40 ef3d d43e 56bc
000003b0: eb3b 223e ea58 a7bc dada 0b3e 6f59 f83d
000003c0: 6d22 a03d 370c 7bbb 306a 973d 084e 333e
000003d0: f96e b73d c0b1 293d ff09 4a3d 122b 513d
000003e0: b722 d43d c280 ac3d a5cb f2bd d664 9b3c
000003f0: bb98 5c3d c304 d83c fa9d 18bd edc1 7bbd
0.18731086 0.028120946 0.18348578 0.21876368 0.0978704 0.054130517 -0.03405387 0.13126546
0.021097591 -0.0008509091 -0.011415163 0.10793118 0.12778214 -0.030071342 0.07869142 0.09056398
-0.049047086 0.08798818 0.18744443 0.19226037 0.08460898 0.0499559 0.03977951 -0.074199505
0.015175933 0.11450636 0.20139888 0.14182281 0.12615283 0.08223432 -0.07768917 0.07630133
-0.1465137 -0.12209225 0.06982972 0.081203386 -0.07776258 -0.039557207 0.042981163 -0.06807965
0.06018418 -0.042500954 0.025651027 -0.058577172 -0.0048809526 -0.0007540917 0.051791202 -0.07458964
0.03696256 -0.15205815 -0.025757102 0.0015875043 0.091116846 0.034132857 0.04642944 -0.12045835
-0.055444468 -0.1588201 -0.12984966 -0.061523493 -0.08562463 -0.12902853 -0.024783392 -0.08379206
-0.0548538 -0.09399917 0.09056806 0.04824633 0.09096427 0.04836366 -0.12912227 0.010180605
-0.12525517 -0.10240323 -0.00945986 -0.034714382 -0.07824924 -0.0013997168 0.012294102 -0.06352649
0.05505431 0.09718954 -0.03417072 0.022746868 -0.09669064 -0.044532254 -0.0055390946 0.011331068
-0.0068267956 0.10091995 0.04603073 -0.04350178 -0.011655733 0.077424206 -0.09881988 -0.101188615
0.0852089 -0.08168186 0.059228536 0.04819454 -0.10467045 0.089830995 0.07453084 -0.019193076
0.015648276 -0.07880712 0.081103235 0.006705597 -0.101233326 -0.08890631 -0.076377034 0.01892808
0.09533054 -0.11070233 0.031179909 -0.09027815 -0.110277385 -0.02359965 0.08859076 -0.10462817
0.002804156 0.02712452 -0.046416514 0.018278575 -0.11304652 -0.0073729022 0.057764567 -0.029829968
0.11384728 0.08244863 0.036603875 0.019336266 0.050540887 0.110848546 0.019628275 0.03216429
0.05070716 -0.058190186 0.05536885 0.014532511 -0.09582868 0.00218026 0.06845153 -0.056790825
-0.100576006 0.006490813 0.01837398 -0.010508839 0.03466139 0.09348968 -0.0969706 -0.015862137
0.07440397 0.036420334 0.05327698 0.12193559 -0.03570366 0.008864436 0.10919832 0.10012383
0.15851305 0.13394104 0.0011374084 -0.0020820843 0.048695907 0.08422559 -0.033526026 0.16598347
0.009376876 0.1244853 0.17765561 -0.015417529 0.093358785 0.17611223 0.1582399 0.108699895
0.09538093 0.078468524 0.109004535 0.06101015 -0.054863855 -0.008646737 0.008454243 -0.03959347
0.06422717 -0.11919764 0.05554547 0.13532728 -0.06952146 -0.016883073 -0.06572123 -0.025331674
-0.027547913 0.06297988 -0.05374594 -0.13693811 -0.054962486 -0.053298805 -0.08433369 -0.16069838
0.14045262 0.16353922 0.15233947 0.1421696 -0.040747624 0.09226986 0.078955024 0.15381968
-0.0028650744 -0.05390092 0.08315008 0.08244524 -0.014880921 0.11329447 -0.02145236 -0.021041078
0.08973653 -0.043030757 0.051189218 -0.07264147 -0.08578147 0.069302335 -0.06630119 -0.1425159
0.0016163645 -0.17193358 0.011815479 -0.031133013 -0.03902685 0.029089607 -0.05208538 0.03416284
0.15308179 0.14163844 0.11682174 -0.013076503 0.1584317 -0.02042814 0.13657704 0.12126433
0.07819066 -0.003830684 0.073933005 0.17510235 0.08956713 0.04142928 0.04932594 0.051066466
0.10358184 0.08422996 -0.11855248 0.01896898 0.053856593 0.026369458 -0.037260033 -0.06146424

sequential.0.bias f4 [32]
00000000: 74f9 18be 862d d8bd d3b4 f5bd d355 e73a
00000010: 5ad1 003e f817 04bd 6b20 653d f29b eabc
00000020: 1ae3 88bc 870f febb bd03 003e 5cba a93d
00000030: 0e10 b7be 6442 45bd 869c 68bd f8a7 80bb
00000040: ddbd 41bd ef71 393c acb1 7abd dc7b dfbd
00000050: 1b36 5e3e 310f bd3d 91a1 723e 8291 56bc
00000060: 9c5b 28bd b89b 023d 098f 6a3d 9104 c33c
00000070: 4442 9abd cf36 963b 62b0 863c 3808 d7bc
-0.14938909 -0.10555558 -0.1199738 0.0017649479 0.12579861 -0.03224942 0.05593912 -0.028638814
-0.016709853 -0.007753316 0.12501426 0.08287498 -0.35754436 -0.04815902 -0.056789897 -0.0039262734
-0.04730021 0.011318668 -0.061204597 -0.10912296 0.21700327 0.09231413 0.23694445 -0.013096215
-0.04110299 0.031886786 0.057265315 0.023805888 -0.075321704 0.0045841704 0.016441528 -0.026249036

sequential.3.weight f4 [32, 32, 5, 5]
00000000: ddb0 fd3b 4f56 ad3b 5d18 c13a 0af2 95bc
00000010: 390e 20bb fba8 3bbd a7a2 47ba e0f9 84ba
00000020: 764c 403c 6a4e 8b3c f1ae 14bd 1052 9e3c
00000030: 0892 20bc b725 853b de61 0dbc 78d3 07bd
00000040: 7b82 c43c 853b 85bc c16b ed3c 3303 5cbc
00000050: 133e 07bd 9481 7d3c 2835 6bbc 8964 35ba
00000060: abf5 c0bc 4a3c 69bc 8196 0abd 1724 85bb
00000070: d5de 65bc cd88 a23a 9554 0c3c 8ca7 6e3c
00000080: 8b8f e5bc 4cb4 99ba 48e0 91bb e1de fe3c
00000090: 893d 023d b744 afbc f8b7 e93c 7dfe b0bc
000000a0: 29a5 d4bc b2a8 0bbd cfcd 91bc c089 0f3d
000000b0: 33da d73a fc3f 053d 4a91 833b c269 bdbc
000000c0: a79d 9fbc d690 8e3c c2a1 17bd f2e2 29bd
000000d0: f171 e9bc 7704 dfbc 9c05 873c 1e7d aa3c
000000e0: f453 3ebd 5013 16bd 12ee 8abc ddda 27bc
000000f0: bfda ee3c a2f9 263b bffd ccbc d382 603c
00000100: d3c7 8fbc c1c7 cfbc a5ce fdbb 0ea9 013d
00000110: ee8f 9cbc e295 973b def5 b93c 703c b3bc
00000120: 9d3c 12ba 6789 03bd a55c 62b9 e68c afbb
00000130: b6a0 db3b 921b 303c 9d15 02bd bf89 983c
00000140: e740 c8bb 7e3d 3f3d 2521 683a fd93 133d
00000150: 66b4 90ba 4f83 b03b f045 653d 7195 343b
00000160: bd05 f73c 0abb ae3b 7715 a5ba 1c3c d73c
00000170: 95a8 cabc 9cb0 d6bc 1290 123d 329c 673c
00000180: 67c3 13bc 4742 59bb cb8e f4bb 29be b93c
00000190: 49cc d1bc 6ddb b2ba f52e cabc 871b 193d
000001a0: 5f7e ea3c 8308 de3c 44ad 353d f3a8 e438
000001b0: 9de7 433d cd86 9b3c 9e20 bebc 7fbc 063d
000001c0: e45c 9fbc c48c 913c e634 673c 2d7a 783c
000001d0: 3f08 2f3c 7f5e 97bc 36dd 1f3c 893e 0c3d
000001e0: 68a4 cabc caaa dcbb 5463 5e3c e8bf b83c
000001f0: e48c 253c 10d8 c2b9 14e7 f03b a3fb 9c3b
00000200: 25e8 013d 9c4c 033c 34f6 99bc daf6 d7bc
00000210: b58a aabb 07a8 1e3d b1bb 91bb 684d 66bc
00000220: 2075 c1bc 9866 ad3c 3d72 0fbd 0169 6c3b
00000230: d708 203c 5d39 d83c b80e c33c 0e43 8abc
00000240: c2d6 d63c ef4f 01bd 4e08 d8bc df22 a1bc
00000250: 1705 8f3b 5317 3abb a0cb 1ebb 27cb c63c
00000260: c919 fb3b ece6 8c3c 1410 8b3b 2420 e1bc
00000270: b4e0 5fbc 626f fb3b b6db 683c c498 fcbc
00000280: 77af 09bc 78c0 733c 1bb7 333c 7c79 b63c
00000290: 8e84 36bb a6d1 cc3c f774 cbbc f39f aab9
000002a0: f438 a1bc 1c4f b2bc ba15 a53a 5156 b0bc
000002b0: e66b d1bc ea27 133a 74d6 5cbc 6584 ddbc
000002c0: f89d 37bd b730 3abd b956 8c3b 446c fcbc
000002d0: ccb8 96bc 8476 ce3c 3815 ab3c 2890 343d
000002e0: 90d2 133c 4ed5 1a3c acba e8bc 4a13 d3bb
000002f0: 7e22 093d f884 efbb c76e f8bc 5bee 4dbc
00000300: ec5b 9b3c 1dc6 b23b 066c f23c e319 ec3c
00000310: 0b9c 94bc 7a11 22bd 40b6 ca3c fe88 f038
00000320: a13a 1bbd d23f 70bc ded5 033d 3492 313b
00000330: 8cf5 e7bc a90f c5bc dc7c 063c 534a 22bc
00000340: 5cdb 923c 1704 9e3c 7bca 1cbb 7e71 71bc
00000350: c2cf 0bbc aead 273d 7dd9 b73b 12a5 d33c
00000360: 2a46 853c 9b17 7d3c f8a5 e73c 2b1e 4539
00000370: af85 e9ba 2482 bdbc 2109 cbba 41fa 78bc
00000380: 4e11 1b3d 496e e13a 1fec 77bc 4533 583c
00000390: d333 0ebd aa06 84bc b120 f4b9 d4a3 a43c
000003a0: 835b 11bc 8b2c de3c c1e2 383b 0426 a8bb
000003b0: 45b2 283b 13c2 173c 5cb9 d3bc 59a3 82bc
000003c0: bffb 6bba 1e67 9fbb 973e 89bc 7731 05bd
000003d0: da77 543c 3ede e0ba 3226 7b3c e8d5 11bd
000003e0: 4401 783b d991 093b 72be bdbc f2da b4bb
000003f0: feec 4bbd 8284 02bd 15bf d339 4486 3fbd
0.007742031 0.00528983 0.0014731992 -0.01830389 -0.002442254 -0.04581545 -0.00076154846 -0.0010145269
0.01173698 0.017005164 -0.03629965 0.01932624 -0.009800442 0.004063334 -0.00862929 -0.033160657
0.023988 -0.016263733 0.028982045 -0.013428497 -0.033018183 0.015472788 -0.014355935 -0.0006919583
-0.023554644 -0.014235565 -0.033834938 -0.00406314 -0.014030178 0.0012400389 0.008565088 0.0145663135
-0.028022548 -0.0011726706 -0.0044517852 0.031112136 0.031796966 -0.02139507 0.028530106 -0.021605724
-0.02595766 -0.034096427 -0.017798332 0.035043478 0.0016468227 0.032531723 0.0040151225 -0.023121718
-0.019484354 0.017403048 -0.0370195 -0.041476198 -0.028496714 -0.027223809 0.016482167 0.020811614
-0.046466783 -0.03663951 -0.016959224 -0.010245052 0.02915704 0.0025478383 -0.02502334 0.013703066
-0.017551338 -0.025363805 -0.007745581 0.031655364 -0.0191116 0.0046260217 0.022700246 -0.021879405
-0.000557849 -0.03211346 -0.00021587552 -0.0053573726 0.006702508 0.010748761 -0.031758893 0.01862037
-0.0061112526 0.046689503 0.00088550366 0.036029804 -0.0011040091 0.005386747 0.0559749 0.0027554894
0.030154103 0.0053323554 -0.0012594898 0.02627378 -0.02473859 -0.02620726 0.035781927 0.014136361
-0.0090187555 -0.0033151077 -0.0074633113 0.022673683 -0.025610106 -0.0013645716 -0.024680594 0.037379768
0.028624712 0.027103668 0.044354692 0.000109033565 0.047828306 0.018985176 -0.023208912 0.032894608
-0.019453473 0.017767318 0.014111733 0.015165848 0.010683118 -0.018477676 0.009757331 0.034239326
-0.024736598 -0.006734227 0.013573486 0.022552446 0.010104392 -0.00037163543 0.0073517654 0.0047907396
0.03171553 0.008013871 -0.018794157 -0.026362825 -0.0052045234 0.038734462 -0.0044474234 -0.014056541
-0.02361542 0.021167085 -0.035021055 0.003607333 0.009767733 0.02639454 0.02381073 -0.016877677
0.026225451 -0.03157037 -0.026371147 -0.019669948 0.0043646204 -0.002839525 -0.0024230257 0.024266792
0.007662986 0.017199956 0.00424386 -0.027481146 -0.013664413 0.00767319 0.014212539 -0.030834563
-0.0084036505 0.014877431 0.010968949 0.022274725 -0.0027850005 0.025002312 -0.024836047 -0.00032544098
-0.019680478 -0.021766238 0.0012594976 -0.021525534 -0.025564145 0.00056135526 -0.013478864 -0.02704067
-0.044828385 -0.045456614 0.004282799 -0.030813344 -0.018398665 0.025202997 0.020884141 0.04408279
0.00902237 0.00945027 -0.028409325 -0.0064415084 0.03348016 -0.0073095523 -0.03032626 -0.012569035
0.01896473 0.005455746 0.029592525 0.028820937 -0.018140813 -0.03956745 0.024745107 0.000114696086
-0.03789771 -0.014663653 0.03218638 0.00270952 -0.028315328 -0.024055319 0.00820848 -0.009905416
0.017926864 0.01928906 -0.0023924399 -0.014736531 -0.00853342 0.04093712 0.0056106434 0.025835548
0.016268808 0.0154475225 0.028277382 0.00018798622 -0.001781633 -0.023133345 -0.0015490392 -0.015196384
0.0378583 0.0017199005 -0.015131979 0.013195817 -0.034717392 -0.016116459 -0.00046563664 0.02009765
-0.008871916 0.02712085 0.0028211328 -0.005131485 0.0025741023 0.0092625795 -0.025845222 -0.01594703
-0.00090020517 -0.0048645874 -0.016753478 -0.032517876 0.012968028 -0.0017156077 0.015328931 -0.035604388
0.0037842551 0.0020991473 -0.0231621 -0.0055192644 -0.04978656 -0.03186465 0.00040387423 -0.046758905

sequential.3.bias f4 [32]
00000000: 73f2 f7bc c2a4 923d ea31 64bd 3e66 f5bc
00000010: 7b64 10bd 87cf 02bd 9321 763d 56d0 24bd
00000020: 7b4f aabd 6368 97bc e8ab ae3d bcaf 4a3e
00000030: d574 15bd df95 763d 6cad bebd ac96 cbbc
00000040: 742b c53c 9fa6 26bc 8ae7 2e3c 03f9 85bb
00000050: 8336 65bc 1c4c 073d 747d 153d a1ab 85bd
00000060: 4bb7 303c 3f47 863c 036a 4b3d 3308 42bb
00000070: ce74 b8bd fab0 bcbd c221 17be 502a 34bd
-0.030266976 0.07160331 -0.055711664 -0.02995598 -0.035252076 -0.031936195 0.060090613 -0.040237747
-0.08315941 -0.018482393 0.08528882 0.197936 -0.036488373 0.060201522 -0.09310421 -0.02485212
0.024068572 -0.0101715615 0.01067532 -0.0040885224 -0.013990047 0.033031568 0.036496595 -0.06526876
0.010785888 0.016391395 0.049661648 -0.0029606938 -0.09006654 -0.09213443 -0.14758971 -0.043985665

sequential.6.weight f4 [64, 32, 5, 5]
00000000: 95d5 783c 0275 12bd 2a5d 21bd e4e8 d3bb
00000010: 84ab a03c 8017 723c e4fb a0bc 516a a7bc
00000020: 6606 6bbc 9b1a 36bd 0c2d b23c 58f6 e6bc
00000030: c4af dabc e207 7a3c 62c3 14bd f041 06bc
00000040: a59b f03b c482 60bc db98 d93a 15aa f43c
00000050: 631e 66bc ef6f 903b 64bd 0abd 985a a3bc
00000060: 08e1 023d 0a33 a8bc 7466 b0bc c0ab b43b
00000070: 325e 4d3c f27c 04bd 07bb 073d c48d 153d
00000080: 05a5 6c3c 322e e1bc 9a8c 793c d6e5 27bc
00000090: 88da 333d 22be b83d 9941 823c 2a02 ecba
000000a0: 9406 8a3c a3e6 7cbc 0470 f93c f578 f23c
000000b0: ecbf 053d 99af 3c3c dd5d 5bbd 2e15 15ba
000000c0: 258b 383c 9768 ac3a 3c68 883c 4301 bfbb
000000d0: 9b6a 5ebd 9a3c f13c d932 bc3c 888d 163d
000000e0: 5cc4 733d ce66 7ebb afe9 97bc 9e6c 7e3a
000000f0: b149 0d3c 85f1 21bd b183 1c3d 17e2 04bc
00000100: b6b6 603c 8eef 9cbc a809 6a3b f166 a0bc
00000110: 3f06 5c3c dc09 2e3c e83c 10bc 672d b23c
00000120: 84b6 3c3c 2e40 2dbd 0bad 3e3b c90f bebc
00000130: 77d9 75bc d2e0 26bd 144f 02bd 8805 a73b
00000140: 847b 3fbd b129 ca3c dafa 48bc 3c0b 4e3b
00000150: 2b3b e33b ed2f f43c 138a 35ba b4f7 4fbd
00000160: 6d2d 0dbd 9b7a 103c cb5b 113c 40b3 2ebd
00000170: 753f 2abd 8f68 033d 9758 0b3d 3726 3f3d
00000180: 6b6f 843c b28a 88bb 2b06 e63c f01e d2bb
00000190: 5275 023d 120b 4b3b 3e64 0abc 6aa8 423c
000001a0: 938a a03c 3854 87bc a137 533d d959 b03a
000001b0: b18c 863c 7f29 ec3b 4e29 d13c 3416 9abb
000001c0: 68ed ebbc 4f10 a8bc 76cf ac3c 8fe2 50bc
000001d0: 4e5a 1bbd 5480 18bd 6a51 10bc 5bba 8d3c
000001e0: 61f7 4fbc cc99 e23c 6542 9ebb 1941 823c
000001f0: 06f5 b83c f5e6 91bc 33d2 91bc e5f6 5f3c
00000200: 6506 8c3c 8921 543d b943 5abc 2726 0a3c
00000210: 35bb 4b3c 54f3 0a3b f3e7 acbc 1edc 36bc
00000220: 8e24 513d ac28 a43d c15a 01bc cbdc 5e3a
00000230: 5491 cb3c e962 19bd 0005 61bc fd8c 3dbc
00000240: dbaa c63c 101e 98bb f801 4cbc 2481 2c3c
00000250: 0ac5 e4bc a1ce 173b b73a ac3c bb22 2d3d
00000260: 7932 3bbd 4c7b b83c 282a 3cbd 5c29 27bd
00000270: 2176 b3bc d876 d0bc 6912 81bd af34 04bd
00000280: 3255 383c 158b 0a3d 431f 79bb 6497 38bc
00000290: db62 82bd f403 d9bc e1d1 943b ff0f f93c
000002a0: 274e abbb 1d4b 30bc e123 ff3c 6d43 a9bc
000002b0: 4ae8 04bb 4502 8b3c dd2d 6d3d cd21 cf3b
000002c0: 79b4 23bc f689 183c 9f46 c93c 2530 2dbb
000002d0: 48ac a5bc af07 ae3c 5a56 853c 5912 9f3c
000002e0: fa95 243d e980 fe3b e80f 9dbc 1611 d6bb
000002f0: 95c7 6abc 8691 af3c e5a3 f33b d62e b63a
00000300: a1cc 57bc 4df6 8a3c d09d 04bc 1216 58bc
00000310: 684b 0abc c02b 9b3b 198b 8abc 4f58 e9bb
00000320: d993 d93c cf6a 0c3d 2c0c ccbb c565 c5bc
00000330: 28f5 47bc 4973 37bb 98ea 433c 0eaf 64bc
00000340: c98b 0dbd 757e 90bc 4718 9eba edba 9a3c
00000350: f9a5 063d ce66 80bb 6305 c23b 1c4c d23b
00000360: e9de be3c b780 5e3c eac4 c43c 2b73 90bc
00000370: d144 d73c b820 e4bc d0d5 5cbc 03a7 f4bb
00000380: 128b 463c 9094 4e3b 7281 f8bc 2ca2 2d3c
00000390: a250 7239 3de8 48bb f77f 323c c688 df3c
000003a0: 78e5 b43c 49df fd3c 0a85 a4bc 1c2b 8dbc
000003b0: 3fd4 9a3c c9be b63c da17 29bc 3373 c6bc
000003c0: b833 edbb 4e84 8a3c 1d98 063d 0ee4 ed3c
000003d0: 6f02 8abc ba8f 58bc ffd3 923c 693d e8bc
000003e0: 22b9 883c 774b 063d d916 113d b9d9 133d
000003f0: 3ca5 f93b b78c f2bc c003 283c 8515 87bc
0.015187641 -0.03575612 -0.03939549 -0.0064669717 0.019613035 0.014776111 -0.01965136 -0.020436438
-0.014344787 -0.044458967 0.021749996 -0.028193638 -0.02669514 0.0152606685 -0.036319144 -0.008194432
0.007342773 -0.013703052 0.0016601341 0.029866258 -0.014045331 0.004407875 -0.033872023 -0.01994066
0.031952888 -0.02053215 -0.021533228 0.0055136383 0.012534665 -0.03234572 0.033137348 0.03651215
0.014443641 -0.027487848 0.015231276 -0.010247668 0.04390958 0.0902064 0.01590042 -0.0018006016
0.01684884 -0.015435847 0.030448921 0.029598692 0.032653734 0.011516475 -0.053556312 -0.0005687055
0.011263643 0.0013153729 0.016651265 -0.005829008 -0.054300886 0.029447842 0.022973465 0.03675607
0.059513435 -0.00388186 -0.018544046 0.0009705516 0.008623526 -0.03953697 0.03821153 -0.008110545
0.013715437 -0.019157197 0.0035711322 -0.019580336 0.013429224 0.010622468 -0.008803584 0.021750165
0.0115181245 -0.042297535 0.002909484 -0.023200886 -0.015005461 -0.04074175 -0.031813696 0.005097095
-0.046748653 0.024678083 -0.012266839 0.0031439802 0.0069345436 0.029808009 -0.0006925177 -0.050773337
-0.03446715 0.008818294 0.008871983 -0.042651415 -0.041564424 0.032082137 0.034020033 0.046667304
0.01616641 -0.0041669244 0.028079113 -0.0064123794 0.031850167 0.003098194 -0.008446751 0.011880973
0.019597327 -0.01651965 0.051566724 0.0013454511 0.016424509 0.007207095 0.02553239 -0.004702354
-0.028799728 -0.020515589 0.021095019 -0.012749328 -0.037927918 -0.03723176 -0.008808473 0.017300775
-0.012693257 0.027661227 -0.004829692 0.015900182 0.022577774 -0.017810324 -0.017800426 0.013669704
0.017092893 0.051789794 -0.01332181 0.008431948 0.01243477 0.0021202164 -0.021106696 -0.011160878
0.051060252 0.0801557 -0.007895173 0.00085015286 0.024849571 -0.037447844 -0.013734102 -0.011569259
0.024251392 -0.0046422556 -0.012451641 0.010528836 -0.027925987 0.0023163932 0.021024091 0.04226945
-0.04570243 0.02251973 -0.04593864 -0.040810928 -0.021906914 -0.025447294 -0.063023396 -0.032276805
0.011250781 0.033824045 -0.0038013018 -0.011266563 -0.063665114 -0.026491143 0.004541621 0.030403135
-0.0052278223 -0.010760096 0.031145038 -0.020662034 -0.0020280057 0.016968856 0.057905067 0.006321168
-0.0099917585 0.009310236 0.024569808 -0.0026426401 -0.020223752 0.021243898 0.016276527 0.019417929
0.04018209 0.007766832 -0.019172624 -0.0065327985 -0.014329811 0.021431696 0.0074353092 0.0013899456
-0.013171346 0.016963148 -0.008094266 -0.013188856 -0.00844083 0.00473544 -0.01691203 -0.007121123
0.026559757 0.034281548 -0.006227037 -0.024096379 -0.012204446 -0.00279923 0.011957787 -0.013957752
-0.034557138 -0.017638424 -0.0012061679 0.018887961 0.032873128 -0.0039185053 0.0059210523 0.0064177644
0.023299651 0.013580493 0.024019677 -0.017633041 0.026277931 -0.027847633 -0.013478711 -0.0074661984
0.012118118 0.0031521656 -0.030335162 0.010597747 0.00023108957 -0.0030656003 0.010894767 0.027286898
0.022082075 0.03099026 -0.02008297 -0.01723247 0.018900035 0.02230777 -0.010320628 -0.024224853
-0.0072388314 0.01690879 0.03285991 0.029039409 -0.016846864 -0.013217861 0.017923353 -0.028349595
0.01668984 0.032786813 0.03542218 0.03609631 0.0076185744 -0.029608114 0.0102548 -0.016489753

sequential.6.bias f4 [64]
00000000: efe7 1cbd 39a3 c6bc 3c28 4b3d c70e c6bc
00000010: 6e75 9e3d 91ea d23c 0cb0 9cbc a4db 85bd
00000020: 17cd 89bb 11dc 103d 1987 4cbc 9849 36bd
00000030: 7ecb 9fbb abdf d13c 1341 36bc fe19 b43c
00000040: 960b 003d 8d51 94bc edee 17bd 8634 5ebc
00000050: e58c fa3b 7374 983c 109e 9c3c cefd 983b
00000060: 0656 873d 2bc3 263d 86a6 d3bc d9e5 b4bc
00000070: cf07 b5bc a608 333d 4199 3c3a 5261 f3b9
00000080: 60cd abbc 5243 a43c 00a3 403d 2490 15bd
00000090: e706 a9bc 9e4e 22bc e20d e6bc d56c f13c
000000a0: 74b0 09bc d9e4 78bb 8a08 a4bc d573 ae3c
000000b0: 3fdd 513d c6db 4e3d cd5b eebc 9bcc dcbc
000000c0: c71d b6bc bca4 da39 2069 5bbc 94b8 66bc
000000d0: 8270 ed3c 9ab5 0cbd e434 9fbb b2fe 15bd
000000e0: ad8b c2b9 ecd1 f43c ae55 41bc d5b6 803c
000000f0: c438 df3c 4fe0 573d a337 6f3c 1917 063d
-0.038307127 -0.024247753 0.049598917 -0.024176968 0.07737242 0.025746616 -0.019126914 -0.06536034
-0.004205357 0.03536612 -0.012483382 -0.04450378 -0.004876553 0.025619349 -0.011123913 0.02198505
0.03126105 -0.018105293 -0.03709309 -0.013562327 0.0076461905 0.018610215 0.019118339 0.0046689278
0.066082045 0.04071347 -0.02583624 -0.022082256 -0.02209845 0.04370942 0.00071944675 -0.0004642108
-0.020971954 0.020051632 0.04703045 -0.036514416 -0.020633174 -0.009906439 -0.028082792 0.02947084
-0.008403886 -0.00379782 -0.020023603 0.021295467 0.051236387 0.05050256 -0.029096508 -0.026953032
-0.022230996 0.00041702937 -0.013391763 -0.014082093 0.028984312 -0.034352876 -0.0048586 -0.03661985
-0.0003710663 0.029885255 -0.011800213 0.015712181 0.027248748 0.05270415 0.014600667 0.03273687

sequential.10.weight f4 [64, 1024]
00000000: 12a7 c83c 2c6c b8ba d215 693d 880e 0f3d
00000010: f786 b53b 4823 833c 4da6 213d 6645 e23c
00000020: a5ae 6cbc 917a 9b3c 539e bfbc e0d0 7138
00000030: 438f 09bc dc24 bc3c e24d ffbc 2cf7 64bc
00000040: 90f8 1cbd 8365 d8bc 26d5 e4bc ebef a8bc
00000050: c690 16bd 49a4 a0bc f1e2 f0bc 5cc7 14bc
00000060: 373d 62bc b1c1 173c b9b6 8a3c b3f0 3fbc
00000070: d642 bf3c 5373 183c 00d6 aa3b 11f2 04bc
00000080: b8fa 44bc 3f0b 5e3c bff8 da3c 6a53 0dbb
00000090: 4490 bf3c c366 c03c 2327 22bd b15c 48bd
000000a0: 8b2a bd3c 573a 80bd 2bce 1bbd 6f82 31bc
000000b0: 19ca b3bc 4672 183c 292b 073b be24 d23c
000000c0: 02ac 9ebc c857 9c3c 798b 5ebc 20ef 03bd
000000d0: 3995 cdbc 5942 2b3c 95e4 a4bc 6eaf eb3b
000000e0: 6a3c e7bc 9aed 9fbb 272d e1bc 9c11 9ebc
000000f0: 5538 10bc ae4d 20bc dcc1 ecbb 6e3a 063c
00000100: 5545 15bd ef75 01bd 3f4b d6bc 0de7 b03c
00000110: 74d0 abbc 1ec1 ac3c b455 3d3a 1a60 cd3b
00000120: dd51 713b 4067 94bc eaeb 733c 89c3 0fbc
00000130: 3476 9dbc 83dc 48bd bca2 cdbc 519c c0bc
00000140: c587 d63c 9b95 64bc 4117 5bbb cd9d 9f3c
00000150: 5e5d a4bb 0ffd afbb c84d 0c3d 89ce f53c
00000160: cf86 a9bc 5cf4 98bc c1a5 a0bb 292b 4abd
00000170: c814 3dbc a7d6 8e3c 272a 76ba 320c ebbb
00000180: 4285 0ebc a6e5 e93c acea 2e3c 5cc2 5f3c
00000190: 87f3 d93c 1f1a 913c 8f8c 1bbd e048 403a
000001a0: bca3 ae3b 980d c2bc 83a6 c3bc ef42 e7bc
000001b0: ca73 3bbc 310b 8e3b 39e8 92bc e6d4 403c
000001c0: 2b79 883b 1238 cd3c 8897 04bd cc8e 263b
000001d0: 8c86 0f3d f552 d33c f59a 033d f964 76bc
000001e0: 713f f83c 5da1 423d fac4 863c ee97 bdbb
000001f0: 925a 88bc bfd3 083d d988 90bb cba5 8d3c
00000200: 4c42 b3bc e6cb 12bc e963 153d c488 573c
00000210: 2c83 a4bc 06dc 95bc 9eb5 edbc e7d3 793c
00000220: b721 e2bc 329b bbbc ea18 8f3b 67f0 cbbc
00000230: 5464 b5bc b295 933c 4836 5c3c 3b48 013c
00000240: aa8c 03bd 4a40 2cbd f8fb 0cbd 53dd 823c
00000250: b978 633c 6281 92bc 7a2a 2ebc 504d e7ba
00000260: 27ef 0ebd a855 aa3b 93c9 0abd fd21 8f3c
00000270: be7c 3cbc 007d a4ba ae63 82bc 7d05 8e3c
00000280: 5894 80bc a92b c4bc 0a63 9bbc 6e81 a53c
00000290: 645b 5fbc 014c 113b 6504 f0bb 8efa 833b
000002a0: 374e 85bc 6bc7 1d3b 0d07 323d 4aff 053d
000002b0: 5857 98bb 1396 eebc 0876 ac3c 695c 3e3d
000002c0: ce12 8bbb 1cce df3c fa64 b53b 7c6d e93c
000002d0: fdda a9bb 9cb2 16bc adc2 763c ff08 703a
000002e0: 995f 5d3c 5424 913c f817 5c3c 9b6d 953b
000002f0: b545 fcbc a848 d1bc 38c6 163d 369b 1cbd
00000300: 24e1 7d3c c944 e73b 269f babc d21c 2ebc
00000310: ce80 d53c 41fd 343d 0552 873b e8e8 a6ba
00000320: 3cf3 223a 68c9 993b 4095 213b 77e8 1c3d
00000330: da44 aebb da7a ce3b 38ad 85bc 5427 a03a
00000340: 946e 75b6 4553 833c 4f19 64bc 5a48 a13c
00000350: b399 a4bc 723b 0abd 3bc0 023d d8f4 00bd
00000360: 4a7a 28bd 5685 03bd 3c03 a8bb fe9a 91bc
00000370: 0b45 e538 cd1d fbbc be66 9f3b 1e0c 093c
00000380: 0671 a7bc 231a 8f3b bbd4 d0bc 2ef0 943c
00000390: 13ef 2fbd b0f5 bbbc 362b 9f3b 1774 6abc
000003a0: eedc dfbb ee60 28bd f85b 8cbc fd5f 60bc
000003b0: 3932 8b3b 85b0 f93b c1c4 f6bc c9f3 ae3c
000003c0: c006 583b 4610 fa3c acdd 2e3d 671f afbc
000003d0: 3d1a d93b 6c13 643b 6559 dabc 899e 863b
000003e0: fc2e 85bd e770 133d f95b 093b c522 afba
000003f0: 81bc e2bc f047 3a3c e785 903c 2d9d b4bc
0.024493728 -0.0014070324 0.056905575 0.034925967 0.0055397707 0.016008034 0.039465237 0.027620982
-0.014445935 0.018979343 -0.023390925 5.7653408e-05 -0.008395973 0.022966795 -0.031165067 -0.013974946
-0.038322985 -0.026415592 -0.027933668 -0.020622214 -0.03675916 -0.019609587 -0.02940509 -0.009080734
-0.01380854 0.009262488 0.016932832 -0.011715102 0.0233473 0.009304839 0.005213499 -0.008114354
-0.012022667 0.013552486 0.02672994 -0.0021564611 0.02338422 0.0234865 -0.039588105 -0.048916522
0.023091575 -0.062611274 -0.038038414 -0.01083432 -0.021946954 0.009304589 0.002062509 0.025652286
-0.01936913 0.019084826 -0.013583058 -0.03221047 -0.025095569 0.01045283 -0.020128528 0.0071925437
-0.02822705 -0.0048806192 -0.02748735 -0.019295506 -0.008802493 -0.009784145 -0.0072252583 0.008192642
-0.036443073 -0.03160661 -0.026158927 0.021594549 -0.020973422 0.02108818 0.00072225486 0.0062675597
0.0036822476 -0.01811564 0.014887789 -0.008774647 -0.019221403 -0.04903842 -0.025102012 -0.023512037
0.026187787 -0.013951684 -0.0033430608 0.019484425 -0.005016013 -0.005370743 0.034253865 0.03000571
-0.020694165 -0.018671207 -0.004902572 -0.049357567 -0.011540599 0.017436339 -0.00093904365 -0.0071730847
-0.008698763 0.028551888 0.010676067 0.013657179 0.02660538 0.01771265 -0.037975844 0.0007335078
0.0053295773 -0.023688123 -0.02388311 -0.028230159 -0.0114411805 0.00433483 -0.017932998 0.011769509
0.004164835 0.02505115 -0.032371074 0.0025414703 0.035040423 0.025796393 0.0321302 -0.015038722
0.030303689 0.04751717 0.016451348 -0.0057859337 -0.01664475 0.03340506 -0.0044108448 0.01729097
-0.021882199 -0.008959746 0.036472235 0.013155166 -0.020082079 -0.018293392 -0.029017266 0.015248275
-0.027603967 -0.022901151 0.0043669837 -0.024894906 -0.022142567 0.018015716 0.013440676 0.007890756
-0.03211657 -0.0420535 -0.034419984 0.015974676 0.013883763 -0.01788396 -0.010630244 -0.0017646942
-0.034896042 0.0051981993 -0.033883642 0.017472262 -0.01150435 -0.001254946 -0.015916672 0.017336601
-0.015695736 -0.0239466 -0.018968124 0.020203318 -0.013632629 0.0022170546 -0.0073247426 0.004027671
-0.016272647 0.0024075161 0.043463755 0.032714166 -0.004649084 -0.029124295 0.021052375 0.046474848
-0.004244185 0.02731996 0.005535719 0.028494589 -0.005183576 -0.009197857 0.015061063 0.0009156614
0.013511562 0.017717518 0.013433449 0.004560185 -0.030794958 -0.02554734 0.03681013 -0.03823396
0.015495572 0.0070577604 -0.022780966 -0.0106269885 0.026062395 0.044186834 0.0041296505 -0.0012734206
0.00062160543 0.004693199 0.002465561 0.038307633 -0.0053182663 0.006301266 -0.016317949 0.0012218752
-3.657221e-06 0.016030917 -0.01392205 0.01968782 -0.02009282 -0.033748098 0.031921607 -0.0314835
-0.04113225 -0.03210958 -0.0051273387 -0.017774101 0.00010932431 -0.030653859 0.0048645427 0.008364705
-0.020439636 0.0043671294 -0.025492063 0.018180933 -0.04295261 -0.022944301 0.004857446 -0.014309905
-0.006831757 -0.041108064 -0.017133698 -0.01369476 0.0042479304 0.0076199197 -0.030123116 0.02135648
0.0032963008 0.030525338 0.04269187 -0.021377278 0.0066254423 0.0034801615 -0.026653955 0.0041082543
-0.06503102 0.035996344 0.002095936 -0.0013361803 -0.027677776 0.01136969 0.017641975 -0.022047604

sequential.10.bias f4 [64]
00000000: 3051 82bc e438 d5bb 4eaa f1bb 7e56 833d
00000010: e71c 063c abba dc3a 6127 b4bc 8632 61bb
00000020: c5e1 93bc 6d87 3c3c 7f3c 1a3d 7f31 3cbd
00000030: 10d7 573c 8f95 713d e833 00bc 6666 09bc
00000040: 4f1d 3c3d 28aa 203c 42c3 8aba 68b4 4bbb
00000050: 72e0 2d3c 7e30 4fbc 042c 3ebc d6d8 11bc
00000060: 5312 a0bc d637 ec3c bb59 823d 4c98 033d
00000070: 65ad 043c 44a7 f5bc 01e0 9ebc 6461 41bc
00000080: 638b 703b 9da5 ae3c a1ca 3ebd 6823 433c
00000090: 63e6 8c3c d73e e53c 8c86 02bd b6d2 943c
000000a0: f0fa a3bc 4b83 ba3b b744 1bbd a05f 5c3c
000000b0: d8ee 0dbc c6d2 d13c 4bb1 ffbc 5323 703d
000000c0: 9430 653c e013 123d 18dd 48bc bac6 40bd
000000d0: 2bc0 e13b 2be8 733c 8019 633b 951f 05bc
000000e0: 1f45 2eba 4591 af3c 2e0d a23b e5b7 a3bc
000000f0: d72f 1fbd 5113 0b3d 6a18 f5bb 660a 1c3c
-0.015907854 -0.006507026 -0.007375038 0.064129815 0.008185602 0.0016840299 -0.021991434 -0.003436239
-0.018051991 0.011506897 0.03765535 -0.04594564 0.0131738335 0.05898052 -0.007824875 -0.00838623
0.04592639 0.009806193 -0.0010586756 -0.0031082872 0.010612594 -0.012645839 -0.011607174 -0.008901795
-0.019539988 0.028835218 0.06364771 0.032127663 0.008097981 -0.029986985 -0.019393923 -0.011803005
0.0036704175 0.021319205 -0.04657996 0.011910297 0.0171997 0.027984066 -0.031866595 0.018166881
-0.020017117 0.005691921 -0.03790733 0.013450533 -0.008662902 0.0256132 -0.03121247 0.058627438
0.013988633 0.035663486 -0.012259744 -0.04706452 0.0068893633 0.014886896 0.003465265 -0.0081252055
-0.0006647873 0.021431575 0.004945419 -0.019985149 -0.038863983 0.03395397 -0.007479717 0.009523964

sequential.11.weight f4 [10, 64]
00000000: d8de 91bd a3b4 44bd 16c4 8d3d e820 feba
00000010: 82bf 653d 860a 14be 90e7 743e 3e0f 1fbe
00000020: 0cb7 553e 2b34 02be ad62 24bd a2a8 113e
00000030: f386 013e 85de 33be 425c 34be 4060 2c3d
00000040: d0d3 4dbe 839f 343d 328d 0dbe 5daf b23d
00000050: f5fb a23d b6d4 b33a 0c87 fdbd fb7a b9bc
00000060: 8c3a 8ebd cd3a 293e a5c6 7e3d 49fe 023e
00000070: 1497 cf3c a608 c93d 39bf eb3d 654e 1b3e
00000080: dc67 113e b4f1 a83d 4115 533e ce2a 2e3e
00000090: 0290 0b3e 12d8 dabd 9ef5 2a3d 3700 e53c
000000a0: 119d 6fbe b729 023e 6bd2 2abe 24e3 1bbb
000000b0: 8553 b4bd f5e9 4bbe 6901 7d3d d5d4 26be
000000c0: f779 383c 1e50 3cbe 3678 4ebc aae0 483e
000000d0: febe 22be a9c2 c73c f83d 40be a2fa 43be
000000e0: 832f 2b3d ddb6 323e 209c 463e 17f9 c3bd
000000f0: 6651 283e 90ce 8ebc 875c 1dbd 219b d53d
00000100: 5f20 773e 1a42 98bc 71ab 333e f06b 23be
00000110: ce98 873e 7a3e 29bd 1660 25be 369e 2a3e
00000120: 169d 61bb 5231 7b3e 1fce 553e 7e6d 09be
00000130: 473f cc3c 5529 88be 4d0a 523e b206 1b3d
00000140: abb6 1bbc de6c 4bbe d9db 9abd 7839 adbc
00000150: 3074 35bd 0504 763e 8807 103e 0976 983d
00000160: 246e 18be 45e7 7e3c b467 07be 0022 803c
00000170: f239 ec3d 4a34 28be 3e85 06be b54f 4e3d
00000180: 3cb6 8abd ac5f 18be 38c2 0abe e6db 47be
00000190: 5271 ad39 b514 303e 0b63 f6bd 8049 2dbe
000001a0: 03b4 643e ae28 c53d 3bdb 43be e579 3c3e
000001b0: bc35 803e ee87 e3bc 95b0 0e3e a38d 7dbe
000001c0: 991e 203e ca61 48be 9cc2 3bbe 11ec 3f3d
000001d0: 0f89 fa3d 6cf0 d1bc 92c3 f63d 5164 0abe
000001e0: 8c76 013e 8ed7 263e 403b c1bd c4a0 47bd
000001f0: f712 91bc 8b5a 07be 74cd ebbd b654 50bd
00000200: 9678 65bc c672 173e bfc2 463a c408 7e3e
00000210: 6458 3e3d 9713 0e3e b14b 613e 030e 093e
00000220: 10df 1e3d c2bd 643c a828 86bd ab0c 833d
00000230: d47a 6c3e 741a be3d d643 6fbe c1a2 c93d
00000240: b82c bfbc 1929 8c3c c7ff 473e 112d c6bd
00000250: 9058 1a3e 75d6 83be 72cc 583e 6bf1 d0bd
00000260: f45a 2dbe 71b7 1cbe 1cb3 253c b8ad 663d
00000270: d08f bebc ec44 bcbd 6f5f fb3d 5a39 9c3d
00000280: a4c5 9cbc fc93 f4bd e2ef b0bd 7216 8cbd
00000290: 61f7 673d 835b 06be 42a5 0b3e 3ab4 513e
000002a0: bb61 373d 9621 b9bd b1b0 24bd c825 0f3e
000002b0: 5edd c9bd 743f 893d 0b5c 123e d7fa 493e
000002c0: 5dc5 1c3d 088b b5bd 15bf d23c 25b2 8e3d
000002d0: 4030 2cbe 9e3a cb3d d492 7b3d e1d6 a4bd
000002e0: a88c 843d 9acf 6b3e b9bd 143e 9438 01be
000002f0: f093 bdbd ee1f 713d cb26 373e 8360 a3bd
00000300: 412b f7bd a2d2 6bbb 1cc3 853d e8fc 81bb
00000310: 681d 97bd decd 983d 3cb1 93bc 3458 80bc
00000320: 4915 29be 09da 2dbe 95eb 3fbc f203 60bd
00000330: ec02 29be b92e 403e ea86 0a3e 5ad1 063e
00000340: 248b 523c 06ce 173d dc30 2d3e 6294 2a3e
00000350: fbf0 febd 48b6 7dbd ed1d 413d bd6e 21bc
00000360: 355e 57bd 88bd 9abd 0d4a 923b ff4b 193e
00000370: 4b1a ffbd ac1a b53b 9e20 b53d 8096 e03d
00000380: d08c cd3d e0e1 133d 0ee2 a8bd 3908 cb3c
00000390: 15de 0c3e 616d 133e 1407 65bd dcff e53d
000003a0: 6671 2a3e 048c 4bbe 2a3f 96bd 9592 313d
000003b0: 28ca 933d dd35 2b3e b958 febd 75fd 263e
000003c0: b44c 3abd 2ec1 933d 7cca 7abd 4234 d2bd
000003d0: 6965 b1bd feee b3bd aadb a43c 6d94 ba3d
000003e0: 5195 fa3d d953 263e 63e3 b73c 9990 f0bd
000003f0: 0b8b 85bc af93 b53d 70ed 04be 17f2 fe3d
-0.07122582 -0.04802383 0.06922166 -0.0019388469 0.05609084 -0.1445714 0.23916459 -0.15533158
0.20870608 -0.12715213 -0.040133167 0.14224485 0.12649135 -0.17565353 -0.17613319 0.04208398
-0.20100331 0.044097435 -0.13823393 0.08724854 0.07958213 0.0013720009 -0.12379274 -0.02264165
-0.06944761 0.16526337 0.06220116 0.12792315 0.025340594 0.09816103 0.11511082 0.15166624
0.14199775 0.08249226 0.20613576 0.17008516 0.13629153 -0.106857434 0.041738145 0.027954204
-0.2339976 0.12711225 -0.1668183 -0.002378651 -0.088049926 -0.19913466 0.061768923 -0.16292126
0.011259547 -0.18389937 -0.012601903 0.19616953 -0.1589317 0.024384813 -0.18773639 -0.19138578
0.041793358 0.1745257 0.19395494 -0.095689945 0.16437301 -0.017432481 -0.03841832 0.10429979
0.24133442 -0.018586207 0.17545868 -0.15959144 0.26483768 -0.041319348 -0.16149935 0.16661915
-0.0034425906 0.24530533 0.2087941 -0.13420674 0.024932517 -0.26594034 0.20511742 0.037848182
-0.009504001 -0.19865748 -0.07561464 -0.021145567 -0.04430026 0.24024971 0.14065373 0.074443884
-0.14885765 0.015558069 -0.13223153 0.015641212 0.1153449 -0.16426197 -0.13136765 0.050368983
-0.0677304 -0.14880246 -0.13550651 -0.19517478 0.00033081562 0.17195399 -0.1203061 -0.1692257
0.22334294 0.096269 -0.19126599 0.18405874 0.25040996 -0.027774777 0.13934548 -0.24761061
0.15636672 -0.19568554 -0.18335956 0.04685599 0.12233173 -0.025627337 0.12049021 -0.1351483
0.12642878 0.16293165 -0.09435129 -0.048737302 -0.017709238 -0.13218133 -0.115137964 -0.050862037
-0.014005801 0.14789876 0.000758212 0.24808031 0.046471015 0.1387466 0.2200153 0.13384251
0.038786948 0.013961257 -0.06550723 0.063989006 0.2309373 0.09282389 -0.23365721 0.09845496
-0.023336753 0.01710944 0.19531165 -0.096765645 0.15072846 -0.25749555 0.2117174 -0.10202297
-0.16929227 -0.15304352 0.010113504 0.056318015 -0.023261935 -0.09192833 0.12274062 0.076281264
-0.019137211 -0.11942288 -0.08639504 -0.068402186 0.056632403 -0.13120846 0.1363726 0.20478907
0.044770937 -0.09039609 -0.04020757 0.13979256 -0.098566756 0.06701556 0.14292924 0.19724594
0.038274158 -0.08864409 0.02572588 0.06967572 -0.16815281 0.0992329 0.061419323 -0.080487974
0.064721406 0.23028412 0.14525498 -0.12619239 -0.092567325 0.05886834 0.17885892 -0.079773925
-0.12068797 -0.0035983701 0.06531355 -0.0039669164 -0.07378656 0.07461141 -0.018028848 -0.015667059
-0.16512026 -0.16977705 -0.011713882 -0.054691263 -0.16505021 0.18767823 0.13528028 0.13165799
0.0128505565 0.037061714 0.1691317 0.16658166 -0.12448307 -0.061941415 0.04714768 -0.009853062
-0.052580077 -0.075556815 0.004464394 0.14970396 -0.12456187 0.005526861 0.08844112 0.109662056
0.100366235 0.036104083 -0.082462415 0.024784194 0.13756593 0.14397193 -0.055914953 0.11230442
0.1664482 -0.1987763 -0.07336266 0.043352682 0.072162926 0.16719766 -0.12419266 0.16307624
-0.045483306 0.072145805 -0.06122826 -0.10263874 -0.086619206 -0.087858185 0.020124275 0.09110341
0.12235511 0.16242923 0.022447294 -0.1174633 -0.016301652 0.08866059 -0.129812 0.12448519

sequential.11.bias f4 [10]
00000000: ee9d 71bd c79d e53d 8601 1d3e 5e24 6fbc
00000010: 5df2 153e 01d7 b0bd a123 dd3d 6b26 5fbd
00000020: c684 3c3c faf3 0e3d
-0.058988504 0.11211734 0.15332612 -0.014596073 0.14643236 -0.08634759 0.10797811 -0.054479998
0.011506265 0.034900643
