learning_pytorch_shizhan/MNIST/MNIST_trained.pth (torch_old, 411465 bytes, 4 tensors)

weight f4 [128, 784]
000000 bb 71 aa 3c 6f b2 e3 bc 3e e7 0a 3d cd 8c e9 3c
       0.020806184 -0.027795045 0.033911936 0.028509522
000010 db 34 5a 3c 5f 17 d4 bc bb 6d 0a bc 78 d0 7d 3c
       0.013318266 -0.02589005 -0.008449013 0.015491597
000020 55 b6 8e bc 6c 67 a1 bc c5 57 ef 3c 4a 38 0c 3c
       -0.017420927 -0.019702636 0.029216656 0.008558342
000030 29 90 79 bc e6 65 70 39 cd 56 5b bc 16 3d 76 3c
       -0.015232124 0.00022926144 -0.013387394 0.015029212
000040 f8 4c d7 bb 23 e1 29 3c 79 2c 4c bb d1 20 cc bb
       -0.0065704547 0.010368618 -0.0031154437 -0.006229498
000050 1f 1a 05 3d d1 30 9b 3c 95 14 4a bc 9f 88 dd bc
       0.032495614 0.018944176 -0.012334009 -0.027042685
000060 3f d8 39 bb 85 30 ca 3c 6f cd 5c 3c 25 b6 70 bb
       -0.0028357652 0.024681339 0.013476714 -0.003672966
000070 57 7f b1 3c 02 c1 16 bd a1 5e a3 3c 5b 64 2f 3c
       0.021667166 -0.03680516 0.019942584 0.010705079
000080 5f 6f 50 bc 49 b8 f8 3c bd 0e 9b bc f6 8f fb 3b
       -0.012721865 0.030361312 -0.018927926 0.0076770736
000090 53 18 97 bc 09 3a dd 3c 7e 08 d7 bc cb f1 03 bd
       -0.018444216 0.027005212 -0.026249167 -0.032213014
0000a0 74 62 81 3c 82 4e 21 bb 58 fd b5 bc 8a f6 e0 3c
       0.015794016 -0.0024613445 -0.02221553 0.027461309
0000b0 d1 53 4a 3c 4f c8 08 3d 39 a1 e0 3c 4b 3a c8 3c
       0.012349085 0.033394154 0.027420627 0.024441859
0000c0 15 d9 e4 3c 20 ea f1 3c a1 f1 14 bd 99 26 59 3c
       0.027935544 0.029530585 -0.036363248 0.013253831
0000d0 6b b3 22 bc f9 f7 9e 3c 77 c0 3c 3c fa 3b ae bc
       -0.009930472 0.019405352 0.011520497 -0.021268833
0000e0 19 9a 53 bc 6d 07 f7 3b 49 b3 c3 3c 53 7e a4 bc
       -0.012915158 0.007538727 0.0238892 -0.020079767
0000f0 f5 01 ad 3c b1 99 be bc 8f 45 eb 3c d7 62 1c 3c
       0.021119097 -0.023266645 0.028719692 0.00954505
000100 dc 04 91 3c 73 16 dd bc 99 1d da bc 79 16 28 bd
       0.017702512 -0.026988244 -0.026625441 -0.041037057
000110 d8 0c 3a 3c d5 93 5a bc 55 09 31 bd 8d a6 ab 3c
       0.011355601 -0.01334091 -0.04322179 0.020953441
000120 fa 2f 03 bc 7a d5 22 bd 09 eb 4b bc 82 9b 35 3c
       -0.008007044 -0.03975437 -0.0124461735 0.011084439
000130 e0 3c dc bc b3 a0 13 bd c9 cf 54 bc 3a c9 a1 3c
       -0.026884496 -0.036041927 -0.012988993 0.019749273
000140 0a fd 05 bd f4 c9 ba bb 7a 4a 43 3b f0 3d 06 bc
       -0.03271202 -0.005700344 0.002979903 -0.008193478
000150 e5 c3 d6 3c 0f 8a f5 bc 96 a3 85 3c fc 52 14 bd
       0.026216457 -0.029973058 0.016313355 -0.036211953
000160 83 13 84 bc 79 ab 83 3c 86 7c 94 3b 65 0b 02 bd
       -0.016122585 0.016072975 0.004531446 -0.031749148
000170 a9 94 7a bc bb 8b 0f bd ee 9d b5 bc 38 08 82 bb
       -0.015294232 -0.035045367 -0.022170033 -0.003968265
000180 bd 7c ec bc fb 2a 4a bc 0c 22 82 3c f7 ab 9f 3c
       -0.028868074 -0.012339349 0.015885375 0.019491179
000190 b8 e7 28 bd 9e 76 a2 bc 15 c8 be 3a 0e 55 39 bc
       -0.04123661 -0.019831952 0.0014555479 -0.0113117825
0001a0 c0 04 94 bc 58 3f 4a 3a 8a cb d1 bc 92 6c 83 3c
       -0.018068671 0.00077151274 -0.02560975 0.016042981
0001b0 a6 69 41 3c e9 97 97 bc c2 d7 0a bd b8 f0 10 bd
       0.011804974 -0.018505054 -0.03389717 -0.035385817
0001c0 69 d0 c4 bb 3a ff ad 3c af 78 a6 bc 9a 3b eb bc
       -0.0060062897 0.021239866 -0.020321218 -0.028714944
0001d0 3c 0c e2 bc f4 a6 ed bc ef af 02 bd 46 c1 93 bc
       -0.027593724 -0.029010274 -0.031906065 -0.018036496
0001e0 92 16 1f bc c0 49 db 3c dd b3 23 3c e4 5b c2 bc
       -0.009709971 0.026768565 0.009991613 -0.023725457
0001f0 10 c6 25 bd a6 8e af bc 62 ae d8 bb 5f 82 1d bd
       -0.04047209 -0.021430325 -0.006612585 -0.03845441
000200 c1 65 9a 3b fc 03 d0 bc 19 9f c3 bc 1d f1 44 bd
       0.004711837 -0.025392525 -0.023879575 -0.048081506
000210 a7 38 b1 bb 76 42 c2 bc bf d4 dc 3c 90 7f 88 3b
       -0.005408365 -0.023713332 0.026956914 0.0041655973
000220 08 e4 97 bc 61 65 0d 3d 46 b0 b6 3b a7 3d df bb
       -0.018541351 0.03452051 0.0055752127 -0.0068127695
000230 15 32 9d 3c 4d fc de bc fa 8d 9a bc d1 3b c1 bc
       0.01918892 -0.027219916 -0.018866528 -0.023588093
000240 9a bb ed bc 84 64 e1 bc 06 ba b9 3b 69 e5 f5 3c
       -0.02902012 -0.02751375 0.0056679277 0.030016618
000250 c4 56 11 3d a9 c5 0e bc ef 1b f7 3c 32 25 63 3b
       0.035483137 -0.008714118 0.030164687 0.0034659621
000260 f3 39 08 3d 9d 63 90 bc a3 92 ad 3c a7 d2 e5 bc
       0.03325839 -0.017625624 0.021188086 -0.028054548
000270 e4 94 f7 3c e1 e0 ae bc 9e d2 81 bc 94 25 f5 bc
       0.030222364 -0.021347465 -0.0158475 -0.029925145
000280 59 9e b8 bc e1 9e f2 bb 12 d2 0d 3c cb 5e a8 bc
       -0.022536444 -0.0074041937 0.008656042 -0.020553013
000290 0e 70 16 3d 5b 1d de 3c 09 8d 11 bd b7 93 26 bc
       0.036727957 0.027113607 -0.035534892 -0.010167054
0002a0 49 4d 16 bc 9b 2a 99 bc 46 4a f2 bc a3 a9 e9 bc
       -0.0091737 -0.018697074 -0.029576432 -0.028523272
0002b0 ce 25 f8 bc e2 97 65 bc 35 a2 f7 3c a4 27 02 3d
       -0.030291464 -0.014013262 0.030228714 0.031776085
0002c0 36 a1 83 3b 55 b6 46 3c f3 06 01 3d 56 6e d5 3b
       0.0040170206 0.012128432 0.031500768 0.006513397
0002d0 3b 24 10 bd b6 5d 0a 3d 74 1c 91 bc 38 76 4e 3c
       -0.035190802 0.033780776 -0.017713763 0.012601428
0002e0 d6 aa 85 3c 21 5c f3 bb 53 7f 0e 3c 5c bb 0c bc
       0.016316812 -0.007426754 0.008697349 -0.008589592
0002f0 5f 1c 9b bc 0d e2 b9 3c 77 bb 1b 3d 04 98 ae bb
       -0.018934427 0.022690797 0.038020577 -0.0053281803
000300 bb 2b e5 3c be 6f f3 bc 68 e4 41 3a 4b f8 05 3c
       0.027974954 -0.029716369 0.0007396401 0.008176873
000310 2e 36 6c 3c 97 17 82 bc cf f4 d7 3c a1 83 6c bb
       0.014417214 -0.01588039 0.026361851 -0.00360892
000320 80 3c b5 bc 4e 4d fa bc 54 4c 1a 3b 82 a0 c5 3c
       -0.022123575 -0.03055444 0.002354403 0.024124388
000330 b1 e0 0f bc 44 ca 13 bd 0d 46 ae 3c 86 90 f0 bb
       -0.008781598 -0.036081567 0.021273637 -0.0073414473
000340 06 be 87 3b 27 09 fb bc 5c f8 fb 3b 8c f1 f1 bc
       0.0041425256 -0.030644013 0.007689519 -0.029534124
000350 8d 8b 0b bd 35 2f 8e 3c 42 80 6e 3c 49 fb b7 3b
       -0.034068633 0.017356494 0.014556946 0.0056146723
000360 93 8d 7a bc 03 4f 90 ba 28 e1 63 3c 44 32 fd 3b
       -0.015292543 -0.0011009875 0.013908662 0.0077269394
000370 3a c3 c7 3c 84 8b 17 3b e0 d4 b7 3c e4 f2 89 bc
       0.024385083 0.002312393 0.022440374 -0.016839452
000380 5e d7 b7 3c 35 41 37 3b 8f 52 1c 3a d7 6f 53 3c
       0.022441562 0.002796245 0.000596323 0.012905083
000390 2f e5 32 bd be 31 62 bc a8 92 b7 bc 3f 43 60 3c
       -0.043675598 -0.013805805 -0.022408798 0.013687908
0003a0 06 f9 20 3c 15 57 d1 bc c3 8a db 3c e3 10 15 3d
       0.009824997 -0.02555422 0.026799565 0.036393058
0003b0 79 8b 68 3b 3d 93 0e bc 99 79 35 bd 23 6b c2 bc
       0.0035483523 -0.0087020965 -0.044305418 -0.023732727
0003c0 cc 34 53 bb 0f 1c b8 bc f9 c5 d5 bb 41 2d 14 3d
       -0.0032227514 -0.022474317 -0.0065238443 0.03617597
0003d0 d3 d4 bb 3b 2b c2 0a 3c 4d e5 be 3c 65 ae 0b bc
       0.0057321577 0.008469145 0.023302699 -0.008525466
0003e0 20 a6 8f 3c cb b4 84 3b c9 05 17 bc 10 f0 fc bc
       0.01753527 0.0040498725 -0.009217688 -0.03087619
0003f0 1c 63 ff 3c 78 34 98 3c 55 64 b2 bc 91 a3 aa bb
       0.031175189 0.018579707 -0.021776358 -0.005207487

bias f4 [128]
000000 e9 26 b9 3c 9a e6 a0 3c 5e ef 2e 3b 71 ba f1 bc
       0.022601562 0.01964121 0.0026692967 -0.029507848
000010 e9 87 e7 3c bb 8b e6 bb 98 1b da bc 22 56 12 bb
       0.02826305 -0.0070357 -0.026624486 -0.0022329171
000020 5b 40 b2 3c 30 bb a6 3a 8b 73 01 3c 1d 2e d7 bc
       0.021759203 0.0012720581 0.007901083 -0.026267106
000030 61 84 03 3d 19 0e 08 3d 2b 35 0c 3c c3 9c 98 bc
       0.03210867 0.03321657 0.008557598 -0.018629437
000040 a8 5f 8d 3c dc 9a 00 bd ed 52 78 bc 84 66 c7 3c
       0.017257527 -0.031397685 -0.01515649 0.024340875
000050 77 5c fb bb 19 4c 20 38 0f d8 97 3c 96 85 de 3c
       -0.007670935 3.8217844e-05 0.018535642 0.027163308
000060 c8 ac 88 bc ba 81 ac bc d6 87 db 3c a8 ff 7f bc
       -0.016683951 -0.021057952 0.02679817 -0.015624918
000070 b5 fb db 3b 8a 2f df 3b 87 f0 c6 bc dc 75 0d bd
       0.0067133554 0.006811087 -0.024284614 -0.034536228
000080 f7 7a 3b bc 88 0a cf bc 28 62 9c bc ab 80 6b 3c
       -0.011442891 -0.025273576 -0.019089773 0.014373939
000090 d3 2b c0 3b a8 56 d3 3c f4 fb 07 bc 0a 89 9e bc
       0.0058645993 0.025798157 -0.008299816 -0.019352455
0000a0 f3 ae f9 3b 0e 10 91 3c 34 85 cb bc 88 83 98 bb
       0.0076197325 0.01770785 -0.02484379 -0.0046543516
0000b0 2b 9e e4 3c 37 66 00 bd 2a e7 b2 3c b3 2b 0b bc
       0.027907452 -0.03134748 0.021838743 -0.008494305
0000c0 e0 de 0f 3d b8 e4 8c 3c 72 ff 07 3d 5d 64 f7 3c
       0.03512466 0.017198905 0.033202596 0.030199224
0000d0 f3 f9 a8 3a ba b2 86 3c ac e6 28 3b ad 27 b0 bc
       0.0012891873 0.016442645 0.0025772257 -0.021503294
0000e0 cd d3 c1 bc b2 c0 b6 3c f7 67 2f 3c 26 09 d1 bb
       -0.023660565 0.022308681 0.0107059395 -0.0063792644
0000f0 22 49 31 3c 45 a8 9e bb cd 82 1a 3b 7f 26 17 bc
       0.010820659 -0.0048418366 0.0023576498 -0.009225487
000100 39 2c 59 3b 07 dc 7c 3c 3b 08 8d bb ec c7 67 3c
       0.003313793 0.015433318 -0.0043039597 0.014146786
000110 b1 31 d2 bc 9e a0 a5 bc 6a 5f c2 3b d6 08 f6 bc
       -0.02565846 -0.02021819 0.0059317844 -0.03003351
000120 ea 12 b7 bb 78 1c ec bb e3 06 04 3d 89 bc 6f bc
       -0.0055869715 -0.007205542 0.03223313 -0.014632353
000130 9d fd 05 3d aa 30 05 bd b5 b1 73 3c 59 7c f5 bc
       0.032712568 -0.032517113 0.014873912 -0.02996652
000140 ed 58 1a 3d e4 16 40 bc 1d aa 00 3d d6 61 b1 ba
       0.037682462 -0.011724208 0.031412233 -0.0013533186
000150 e6 f7 3d 3c 46 34 31 3c dd a9 e8 3a f9 ca d9 bb
       0.011594748 0.010815686 0.0017750819 -0.0066465107
000160 10 5d 8e ba 51 90 8e bc 61 91 ba ba 73 d9 3d bb
       -0.0010861475 -0.0174028 -0.0014234 -0.002896872
000170 da 44 90 3c 66 9b fa bc d3 d4 75 3c 42 59 5b 3c
       0.017610956 -0.030591678 0.0150043545 0.01338798
000180 ec e7 8d 39 fa 38 e6 bc e4 e4 1e 3c 46 30 8e 3c
       0.0002706641 -0.02810334 0.009698126 0.017357003
000190 e8 5f 94 3c 6d 20 53 bc 64 5e e7 bb c9 e2 e6 3c
       0.018112138 -0.012886149 -0.007060813 0.028184311
0001a0 38 9f a4 3c 6f bc f1 3c f5 0d 58 bc e0 4a ce 3c
       0.020095453 0.029508797 -0.013186921 0.025182188
0001b0 88 a2 6d 3c ca dd bc 3c a6 48 14 3d 32 49 16 3d
       0.0145040825 0.023054976 0.036202095 0.0366909
0001c0 d4 ae bc 3c c1 d3 b6 3c c8 d4 e2 bb 55 22 19 3d
       0.023032583 0.022317769 -0.006922338 0.037386257
0001d0 67 bb 0a 3d 57 cd a9 3c 0b 55 d5 3b 2f 36 d0 3c
       0.033870127 0.020727796 0.006510382 0.025416462
0001e0 bf f6 04 bd ef 12 da 3c ac 54 91 bc 39 cf db bc
       -0.032461878 0.026620356 -0.01774057 -0.02683221
0001f0 33 db be bc 2e 27 97 bc a2 58 b8 bc 35 e4 07 3d
       -0.023297882 -0.0184513 -0.0225032 0.03317662

weight f4 [10, 128]
000000 9c 23 16 bd a2 0e 51 bc 16 fc 98 3d 70 e6 3c be
       -0.036655053 -0.012759836 0.074699566 -0.1844728
000010 71 e5 3c 3c af 70 8e bd 06 65 c4 bc 7e 52 b8 3d
       0.0115293125 -0.069550864 -0.023973953 0.09000109
000020 2e c7 a0 3b 1a a8 c4 3c 81 ad 76 be ae 2a c9 3c
       0.0049065566 0.024005938 -0.24089624 0.024556484
000030 74 c0 41 3d 7f ff 11 be 2c dd 0f be 80 76 8a bd
       0.04730268 -0.1425762 -0.14049214 -0.06760883
000040 c5 d2 e4 3d 5e eb a0 3c e3 e6 16 be 97 28 73 3d
       0.111730136 0.019643482 -0.14736514 0.05936488
000050 0a e4 98 bd c0 b3 c9 3d 32 a6 4d be 39 62 7c 3e
       -0.0746537 0.09848738 -0.2008293 0.24646844
000060 aa 7f 84 bd 47 9d f6 bc 82 38 81 3e 08 49 12 3e
       -0.064696625 -0.030104293 0.25238425 0.14285672
000070 31 09 20 be 6d fd d9 bd 47 52 41 3d 31 eb fe bd
       -0.15628506 -0.1064404 0.047197606 -0.12447203
000080 85 eb 0e bd 21 7a f8 3a 1c f9 b2 bc dd 4c 63 3c
       -0.034892578 0.0018957296 -0.0218473 0.013873306
000090 42 c5 66 3b 97 d7 e6 bd 8c 62 4d 3b 36 78 f9 3b
       0.003521279 -0.11271589 0.0031339256 0.007613207
0000a0 37 36 63 3b ab 5e 8d 3e ee 28 6e be 5b ca 15 3c
       0.0034669766 0.27611288 -0.23257801 0.009142484
0000b0 30 90 d0 bd 5c e4 68 bc 38 9b 89 3c 5a f8 22 be
       -0.101837516 -0.014214601 0.016797647 -0.15915051
0000c0 f0 a9 d1 3b a1 5c 75 3d e7 b5 ab 3c 0b 43 48 3e
       0.006398432 0.05990279 0.020960761 0.19556825
0000d0 62 a7 59 bd 1d 38 94 bc c7 de 0f 3d da 09 c2 3b
       -0.053138144 -0.018093163 0.035124566 0.0059215846
0000e0 29 0e ae bd e2 76 46 3e ff 80 17 3e 9b ca e4 3d
       -0.084987946 0.19381288 0.14795302 0.111714564
0000f0 5c a6 93 3e 03 0b 3a 3e 49 b4 cf bc 9e b1 4b bd
       0.2883786 0.18168263 -0.025354521 -0.049729936
000100 92 57 8f 3d 47 f2 7d 3d f2 f8 a2 bd fa 6c 9d 3d
       0.069991246 0.06199863 -0.07957639 0.07686801
000110 42 58 af 3d 78 3d d7 bd 51 b4 94 3d cc ac 90 3d
       0.08561756 -0.10509771 0.07260955 0.070642084
000120 56 20 4f 3e 3c 09 2e bc 37 80 e5 bd 6c 89 24 3d
       0.20227179 -0.010622319 -0.11206096 0.04017012
000130 f9 0c bd 3c c9 c4 e5 ba 79 f5 0e bd a6 9e 8c 3d
       0.023077475 -0.001752996 -0.03490207 0.06866197
000140 44 5f c5 bd b0 47 4d be 7f f9 0d be d7 f2 b0 3c
       -0.09637311 -0.20046878 -0.13864706 0.02160017
000150 8a f8 ee 3c 63 8d 27 3c e2 36 7c 3e c2 56 4d be
       0.029171247 0.01022658 0.24630311 -0.20052627
000160 d2 e2 0a bd 94 8e 11 bd 4f f8 89 3d 94 d2 12 be
       -0.03390772 -0.035536364 0.06736814 -0.14338142
000170 58 e3 ba 3d ea b4 16 be f6 a7 a0 3d 84 3b 9b 3d
       0.09125394 -0.1471745 0.07844536 0.07579711
000180 38 36 af bd 2f 8f 70 3e 9b fc 7f be 55 a6 e0 3d
       -0.08555263 0.2349212 -0.24998705 0.10969225
000190 0d e8 34 3e ef 30 3e 3d a7 e9 8a be cb af d2 3c
       0.17666645 0.046433385 -0.27131388 0.02571859
0001a0 35 45 52 be 88 2e f7 3d 44 c7 6d bd 0d 3a 14 3e
       -0.20534213 0.12069422 -0.058051363 0.1447527
0001b0 d8 07 a8 3d 44 85 9a bb a6 5d 73 3d d4 af f1 bd
       0.08204621 -0.0047155935 0.059415482 -0.11801115
0001c0 59 39 0c bd b3 ee 6c 3d a9 7d 94 bd 67 8d 05 be
       -0.03423438 0.05784483 -0.0725053 -0.13042222
0001d0 14 60 e7 39 01 57 24 3e fb b0 b8 bc c9 7b 87 3c
       0.00044131337 0.16048814 -0.022545328 0.016538518
0001e0 41 50 0c bc 0a 98 58 3d 8c 94 5e bd ed 35 5b 3d
       -0.008564056 0.05287937 -0.054340884 0.053518225
0001f0 20 2c 5e 3e 12 22 8c bd 73 a0 9e 3a 53 5a ae bd
       0.2169652 -0.06842436 0.0012102261 -0.08513322
000200 fe ed 05 be 6f 36 5a 3d 6d 77 86 bd ed 9d a6 3d
       -0.13079068 0.05327457 -0.065657474 0.08135591
000210 7a 37 ee 3d 35 6d 66 3c 54 60 b1 bd 5f 7a 54 3e
       0.11631675 0.014064123 -0.08660951 0.20749806
000220 20 7e 5f 3e 65 44 ef 3c 6a c0 03 3e 10 e6 2c 3c
       0.21825457 0.029207418 0.12866369 0.010552898
000230 17 48 b7 3d 68 5f 8c 3d 37 b0 63 3c 11 d7 57 3e
       0.08949297 0.06854135 0.013896993 0.21078135
000240 dd a5 fd 3c 55 ce f4 bd eb 16 e1 bd 9b d5 89 3d
       0.030962879 -0.11953417 -0.109906994 0.06730195
000250 4c aa bf bd bb e6 d5 3c 11 ba 85 3e bd 2b 36 be
       -0.093586534 0.026110997 0.2611852 -0.17790122
000260 54 3b 31 bd 0e 47 a2 3d 21 87 95 bd e6 f0 64 be
       -0.04326947 0.07923709 -0.073011644 -0.2235752
000270 0a d9 8c 3d 41 c9 17 3d 86 43 6a 3d a9 f4 94 3e
       0.068773344 0.037057165 0.0571933 0.2909291
000280 40 90 b9 bd 63 07 e5 bd 62 41 7a bd 2f 0b 60 3d
       -0.09060717 -0.111830495 -0.06109751 0.054698166
000290 44 bc e7 bd 57 ae 18 be 9b 92 77 3c f4 49 c2 3c
       -0.11315206 -0.14910255 0.015110637 0.023716904
0002a0 14 0e 37 bd d2 74 65 3d 95 d1 33 3e 6a 46 39 3d
       -0.04469116 0.05601961 0.17560418 0.045233168
0002b0 c0 62 84 bc 5e 9c 1a 3e e8 7a ba bc d0 15 6c be
       -0.016160369 0.15098712 -0.022763684 -0.23055196
0002c0 af ed ac bd 55 0b 21 bd 37 e7 c2 bd e4 4c 2e bd
       -0.08443772 -0.039317448 -0.09516757 -0.042553797
0002d0 2a 42 8f 3d 3b 3d 0a be b6 9f 80 bd 05 aa 8e bd
       0.06995042 -0.1349992 -0.062804624 -0.069660224
0002e0 51 15 0a be b9 f4 82 be 85 2a ee bd 0d c2 36 be
       -0.13484694 -0.25577334 -0.11629204 -0.17847462
0002f0 20 c2 01 be 96 ab 8e bd b9 fc 1b be 5f 3e b9 bc
       -0.12671709 -0.06966321 -0.15233125 -0.022612749
000300 ac e3 4d bb a3 d2 60 3d 26 50 e1 bd 29 92 8b 3d
       -0.003141622 0.05488838 -0.11001615 0.06814987
000310 e1 91 2f 3d 54 84 2d 3c 7d 72 40 3d 5f e6 28 3e
       0.04286373 0.0105906315 0.046984185 0.1649413
000320 07 10 eb 3d b1 20 bf bb c3 c8 21 be 45 d6 68 bd
       0.11477666 -0.0058327545 -0.15799241 -0.05684497
000330 ce 79 67 bc a6 0e 02 3e 0f c6 aa 3d 00 b9 3e bd
       -0.014128162 0.127009 0.08338558 -0.04656315
000340 66 6d a5 bd df 14 67 3e e5 cb 7d 3d 39 f0 97 3c
       -0.08077507 0.22566555 0.061962027 0.018547164
000350 e1 44 08 bd 16 00 63 bb 70 3c 7d be ca 35 ab 3d
       -0.033268813 -0.0034637502 -0.24730086 0.08359869
000360 6b b4 1a be a6 2e 60 bd cb 4c 0d 3d 01 67 22 be
       -0.15107886 -0.054731987 0.034497064 -0.15859605
000370 b8 7a 6a bd 61 ab e0 3d 96 60 94 be 89 86 ed 3d
       -0.05724594 0.10970188 -0.2897994 0.11597926
000380 72 b3 60 bc f7 94 83 bd 85 55 1a 3e 40 f4 03 bc
       -0.013714658 -0.06424897 0.15071686 -0.008053839
000390 82 83 86 be be 89 28 3c 7d 14 a0 3d e8 3d 39 3c
       -0.26272207 0.010286747 0.07816408 0.0113062635
0003a0 d5 eb 26 3e 39 d9 68 be 7a 63 35 3e 57 a3 ec bd
       0.163009 -0.22739114 0.17713729 -0.11554592
0003b0 6e 2d 62 bd d0 a0 41 3c eb 27 06 3e af ec 89 bd
       -0.055219106 0.011818126 0.13101165 -0.06734597
0003c0 8c f6 4e be 24 51 a9 3c 46 87 1a be a8 05 63 3c
       -0.20211238 0.020668574 -0.15090665 0.013856329
0003d0 4f a3 16 be 17 47 6d 3d a8 44 37 be 8c cb 64 bd
       -0.14710735 0.057929125 -0.17897284 -0.05585818
0003e0 0b d7 14 3c f0 0e 2d 3d 81 f1 8b bd 76 94 44 bc
       0.009084473 0.042250574 -0.068331726 -0.0119982865
0003f0 80 28 3d be ae d2 00 3c 50 f7 a0 bd 36 f5 ae bd
       -0.18472481 0.00786273 -0.07859671 -0.08542864

bias f4 [10]
000000 42 88 3b 3d 77 91 59 3d 97 93 a5 3c d0 fc 9d bd
       0.045784242 0.05311724 0.020211978 -0.07714236
000010 ad 9d 0b bb fc 84 7e 3c cf 17 67 3d 73 d6 0b bc
       -0.00213037 0.015534636 0.05641919 -0.008535015
000020 9d 8e 8c 3b ff c8 64 3c
       0.0042894618 0.013963937
